mogp_model_state_spNGc.pth (torch, 525571 bytes, 8 tensors)

variational_strategy.lmc_coefficients f4 [5, 5]
000000 dc ac 0d bf 2c 12 99 be df 98 e4 be fd ee 1c bf
       -0.5534189 -0.29896677 -0.4464788 -0.6130217
000010 3f 9c f6 3d d5 31 04 38 3e 30 23 38 6a fb 2f 38
       0.1204152 3.1517662e-05 3.8907157e-05 4.19574e-05
000020 d9 84 93 b8 52 9e 91 38 7e d6 55 be 56 44 ae be
       -7.034251e-05 6.943628e-05 -0.20882604 -0.3403651
000030 13 4e 84 be 62 bc af 3e e2 78 18 bd d6 fc e8 3c
       -0.25840816 0.34323412 -0.037224658 0.028440874
000040 62 76 8c 3c e1 8d 2f bd 13 6f 47 3d 67 42 e2 3b
       0.017146293 -0.042859916 0.048689913 0.0069048884
000050 d2 7c 08 bd b9 90 74 3c 11 f3 32 3c 7a 15 47 3f
       -0.033322163 0.014927083 0.010922209 0.77767146
000060 c7 a5 89 3f
       1.0753716

variational_strategy.base_variational_strategy.inducing_points f4 [5, 159, 3]
000000 8c 78 9d be b4 d9 24 3d 96 1e de 3f 55 81 22 c0
       -0.30756032 0.04024668 1.7353084 -2.5391438
000010 4a 55 1f 3d c0 fa 2a 3f 25 96 14 40 92 9a 44 3e
       0.038899697 0.66788864 2.321664 0.19199589
000020 ce e1 a4 40 d5 40 99 bf da d0 9e bf 84 24 11 3e
       5.152564 -1.197291 -1.2407486 0.14174086
000030 fa 1c 17 c0 f0 c8 5f bc bf 40 6b c0 e8 ae 0f c0
       -2.3611436 -0.013658747 -3.6758268 -2.2450504
000040 6f 47 be bc b2 ba f9 bf f8 76 1e bf 88 fb 83 3f
       -0.023227422 -1.95101 -0.6190028 1.0311136
000050 d3 3d 09 40 aa 9c 54 bf 79 d4 94 bf 59 26 53 3e
       2.1443985 -0.8305155 -1.1627342 0.20620097
000060 f2 06 54 40 1b ff 47 c0 ea 8d f7 3c 7e 67 31 3f
       3.312924 -3.1249454 0.030219037 0.6929854
000070 df 3c 56 3f b8 6b c0 bf cb fe b5 bf e6 6a 22 3d
       0.8368663 -1.5032873 -1.4218382 0.039652728
000080 09 44 26 c0 62 bf 1a 40 ab 5a 94 bd 02 ee e0 40
       -2.5979025 2.417931 -0.07243856 7.0290537
000090 f8 c9 dd 3f bd 13 07 3f b0 cc c4 3d 1e f2 6b bf
       1.7327261 0.52764493 0.096093535 -0.92166317
0000a0 ca d9 95 3f 8e 76 2a be 0e 98 df be 9f 2b 8a bf
       1.1707089 -0.16646788 -0.43670696 -1.0794562
0000b0 00 41 9e 3f 60 50 1e 3f 87 a4 5d bf 11 89 4f 3e
       1.2363586 0.6184139 -0.86579174 0.2026713
0000c0 11 94 f4 3f 67 97 eb be c6 2b 3c 40 e8 ef 3e bf
       1.9107686 -0.46013948 2.9401717 -0.7458482
0000d0 c7 4d 78 be 35 c2 ec 40 e3 bd fe 3f e2 87 d1 3e
       -0.2424842 7.398707 1.9901699 0.40923983
0000e0 7f 8a 46 c0 7e a6 b4 bf bc 3b 9d 3d ad 9d 69 bf
       -3.1022031 -1.4113309 0.07677409 -0.9125622
0000f0 21 5b d1 3f ae e8 10 3f c9 fd 49 40 f2 22 9d c0
       1.6355935 0.5660504 3.1561148 -4.910516
000100 c2 6e 00 bd 1a c5 43 41 05 2b 6d bf f1 07 96 3f
       -0.031355627 12.2356205 -0.9264377 1.1721174
000110 ba f6 b3 3e 5d cb 00 bf 0c c1 8d bf df 1f 9a bf
       0.35149175 -0.5031031 -1.1074538 -1.2040976
000120 db e0 17 40 2f 1b 0c be 02 e4 a9 40 13 11 b8 bf
       2.373099 -0.13682245 5.309083 -1.4380211
000130 23 b0 9f 3f df 1a 0a bf a7 08 e8 3c fb 11 80 3f
       1.2475628 -0.5394725 0.028324438 1.0005487
000140 0f 98 71 bf 16 3e bd be aa 4c 89 bf 78 c9 c1 be
       -0.9437265 -0.3696143 -1.0726521 -0.3784902
000150 93 84 0c 40 ed 72 86 be 04 93 f9 3f be af 99 3f
       2.1955917 -0.26259556 1.9497991 1.2006757
000160 ef 01 3b 3f b5 ec 2a 3f a0 e4 8e bf 87 f6 03 bd
       0.73049825 0.66767436 -1.1163521 -0.03221753
000170 11 b8 93 c0 4b e3 07 40 b0 b6 ab 3e 43 10 9c c0
       -4.616219 2.1232479 0.33537817 -4.876985
000180 86 22 26 3f ee 92 57 3f 4c 34 75 3f 78 80 56 bf
       0.6489643 0.8420857 0.95782924 -0.8378978
000190 d5 b0 59 3e f0 88 2a 40 ad f7 13 40 03 2a 64 be
       0.21258862 2.664608 2.311992 -0.22281651
0001a0 ae cb 16 bf 5a 4d b2 be a7 55 e6 3c 51 94 1e 40
       -0.5890454 -0.3482464 0.028117014 2.4778025
0001b0 95 31 b7 be 7f b3 88 3f d0 8c 63 bf f2 56 17 bf
       -0.35780016 1.0679778 -0.8888674 -0.59117043
0001c0 c1 6a 71 bf 10 8b 01 3e d0 c4 0c 40 63 b3 a0 3e
       -0.9430352 0.12650704 2.1995125 0.3138686
0001d0 d3 65 2a be 6f f4 13 40 de 18 61 be 43 b3 66 40
       -0.16640405 2.311794 -0.21982142 3.6046913
0001e0 48 23 af 3f 74 3f 28 40 ef 66 18 c0 93 22 12 c0
       1.3682642 2.6288729 -2.3812826 -2.2833602
0001f0 a7 68 a1 bd da 89 c0 40 79 98 ad 3f 37 ca ea bf
       -0.07881289 6.0168276 1.3562156 -1.8342961
000200 94 aa dc c0 d2 0c 3b 3e 0b f4 75 bf 73 25 8a 3f
       -6.8958225 0.1826661 -0.96075505 1.0792679
000210 f3 a9 01 40 cb 61 a0 3e d8 29 55 3f ae 16 c3 3f
       2.0259979 0.3132461 0.83266973 1.5241296
000220 88 53 19 3f c4 a5 39 c0 3b 81 14 40 70 9e 6f 3e
       0.59893084 -2.9007425 2.3203876 0.23400283
000230 8a 3e dc 3f ab 7a 01 c1 da 79 3d 3f 93 31 43 c0
       1.7206585 -8.092448 0.74014056 -3.0499008
000240 e3 d2 8e bf 34 8f 3d c0 84 0e 4a 3f cb 6d 44 3e
       -1.1158108 -2.9618654 0.789284 0.19182508
000250 11 54 75 bf 57 ac 45 bf ce ac 28 bc 5c 9e 80 bf
       -0.958314 -0.77216095 -0.010295106 -1.0048327
000260 69 30 1b 3e 95 47 a8 bf a1 2d b9 3e e9 6e 70 bf
       0.15155186 -1.3146845 0.36167625 -0.93919235
000270 df 8d 1b 40 79 a9 a9 3d c0 86 b4 3d 61 63 16 40
       2.4305341 0.082842775 0.08814764 2.3498156
000280 ab 88 94 bd f2 6e 33 3f 7f 74 19 40 f4 be 6e bd
       -0.0725263 0.70091164 2.3977354 -0.058287576
000290 af c8 22 c0 74 fa 59 bf 6b 3c 85 3f 71 54 1c 3e
       -2.5434988 -0.85147786 1.0409063 0.15266587
0002a0 3a 03 e4 3f d5 09 08 bf 87 9f df 3f 69 57 9c bf
       1.7813485 -0.5314 1.7470559 -1.2214175
0002b0 9b b0 9d bf ff 98 49 3f af f4 8b 3f ca cd 3c bf
       -1.2319521 0.7874908 1.0934047 -0.7375151
0002c0 ce 74 23 c0 d7 67 90 3f 9a ce 3b 3f 84 7e 03 40
       -2.5540042 1.128169 0.73362124 2.054597
0002d0 3d 6e fb be a3 c5 8b 3f 84 f3 76 3d e9 63 99 bf
       -0.49107543 1.0919689 0.06029083 -1.1983615
0002e0 ce a4 62 bf 93 72 7b 3f e9 e2 48 bf ef 5d 90 3f
       -0.8853272 0.982217 -0.7847124 1.1278666
0002f0 8b 14 e5 3e 4a 51 a6 3f 9b 27 2d bf 46 8b 9d 3f
       0.44742236 1.2993557 -0.6763856 1.2308128
000300 58 46 16 3e aa d6 7b 3f 7d 40 dc 3e 6a ac e4 be
       0.14675272 0.98374426 0.4301795 -0.44662791
000310 93 93 52 bf 5c 6c 9b 3f d3 c2 08 40 ff 4b a9 3e
       -0.8225643 1.2142444 2.1368911 0.33065793
000320 6e 2e 60 40 4f 88 4c bf d1 8e 8d bf be 3b 09 3e
       3.5028338 -0.7989549 -1.1059209 0.13401696
000330 55 2d a6 3f 0d 85 2f bf a6 d7 1f 40 23 ac 62 bf
       1.2982584 -0.68562394 2.4975371 -0.8854391
000340 f2 ec 36 bf 58 f9 8b 3e 2c 04 ad c0 b3 cb 04 3e
       -0.714553 0.27338672 -5.4067593 0.1296833
000350 f9 ea 6d 40 b7 b5 6b bc dc 3c 80 bf c1 ec a0 bf
       3.7174666 -0.014386586 -1.0018573 -1.2572252
000360 96 a4 e6 bd 76 bf 89 3f 19 06 a6 bf 25 66 06 3e
       -0.11261861 1.0761554 -1.2970611 0.13124903
000370 12 c0 80 bf c7 25 74 bf fa 69 73 bf bb c9 97 bf
       -1.0058615 -0.95370144 -0.9508358 -1.1858438
000380 8f 07 3c 3f 65 85 89 3e da ce 70 bf ec 2e e8 bf
       0.73449033 0.26859584 -0.9406563 -1.813932
000390 9b 7a fa 3c 43 a4 7f bf 79 e8 ea 3f 26 44 f5 3f
       0.030576041 -0.9986002 1.8352195 1.9161422
0003a0 f7 69 e8 3e 0d 20 a9 3f 96 df 4c c0 eb 63 27 40
       0.45393345 1.3212906 -3.2011466 2.6154735
0003b0 b7 26 c8 3e 60 11 88 be 45 f2 84 bf 4b 2d 00 bf
       0.39092037 -0.26575756 -1.0386435 -0.5006911
0003c0 a0 cb 68 c0 ef cf 93 3f 04 52 4f 41 ea 08 49 3e
       -3.6374283 1.1547831 12.957523 0.19632307
0003d0 7a dd 73 3f dd 72 de bf 73 c3 00 40 92 ab d5 be
       0.9525982 -1.7378803 2.0119293 -0.4173246
0003e0 7e 90 21 3d 1b 1a 0a 40 6c 78 a8 be 94 46 23 c0
       0.03944444 2.1578434 -0.32904375 -2.5511827
0003f0 b1 3e 78 bf c6 e5 2a be 80 1e 83 40 46 52 be bd
       -0.9697066 -0.16689214 4.097473 -0.09293036

variational_strategy.base_variational_strategy._variational_distribution.natural_vec f4 [5, 159]
000000 97 bf 96 c8 05 64 d4 c5 f5 6a 1e c6 43 86 35 49
       -308732.72 -6796.5024 -10138.739 743524.2
000010 d9 5e 81 c5 f4 c8 c3 46 9f c3 2b ca 0b 81 fd 48
       -4139.856 25060.477 -2.8141838e+06 519176.34
000020 f8 da 43 c5 19 e0 f2 c9 62 72 ec c7 26 54 6b 47
       -3133.6855 -1.9896351e+06 -121060.766 60244.15
000030 78 b8 ff 48 82 d0 31 ca 2c 89 46 c6 34 f4 63 48
       523715.75 -2.9133125e+06 -12706.293 233424.81
000040 76 e6 68 47 3a ee 30 c6 b0 b7 84 48 45 6f 2d c6
       59622.46 -11323.557 271805.5 -11099.817
000050 c3 cb 76 c8 00 44 8f 43 e0 17 04 48 db 14 fe 44
       -252719.05 286.53125 135263.5 2032.6517
000060 53 16 02 c7 d6 eb 2b 49 78 ca e6 c8 0b d3 ea 45
       -33302.324 704189.4 -472659.75 7514.3804
000070 31 53 a2 47 e6 12 5e c8 52 c5 bf c5 b2 69 33 47
       83110.38 -227403.6 -6136.665 45929.695
000080 56 61 31 c8 b6 6e aa c5 6e 27 79 47 dc 5d f5 c5
       -181637.34 -5453.839 63783.43 -7851.7324
000090 49 dd b4 46 91 bb 00 c6 86 f5 1b 47 16 63 1d 45
       23150.643 -8238.892 39925.523 2518.1929
0000a0 e8 fc a0 44 b7 53 17 c5 ea 60 92 43 25 cd fc c6
       1287.9033 -2421.2322 292.75714 -32358.572
0000b0 c8 a0 45 45 5b 25 11 c7 e9 4b c0 c6 e4 c6 dd 41
       3162.0488 -37157.355 -24613.955 27.722115
0000c0 6f af 19 43 8f f5 07 46 3e 23 41 c6 b9 80 b8 c2
       153.68529 8701.39 -12360.811 -92.25141
0000d0 69 3a e4 c6 0e c8 c0 46 c1 7e 49 c5 c2 81 17 c5
       -29213.205 24676.027 -3223.922 -2424.1099
0000e0 b3 ce fe 45 f4 1c 5c 43 c3 a9 38 46 8c 2b 25 47
       8153.8374 220.1131 11818.44 42283.547
0000f0 0a cd ad c7 14 e8 b6 43 c6 8b 75 45 5b 59 7f 44
       -88986.08 365.8131 3928.7358 1021.3962
000100 3e 84 f0 c5 2d 70 c7 c3 dd ac ec 40 42 21 06 c3
       -7696.5303 -398.87637 7.3961015 -134.12991
000110 95 33 a0 44 0d ef d9 c2 f7 1f 89 40 74 da 40 44
       1281.6119 -108.966896 4.285152 771.4133
000120 1c e7 57 45 c5 99 ec 42 1e 1f 5e c4 9d a3 95 c4
       3454.4443 118.30033 -888.4862 -1197.1129
000130 88 79 d9 43 69 3d 22 45 5c 46 12 42 cf 2f 6b c4
       434.94946 2595.8381 36.56871 -940.747
000140 79 db 98 41 6c 69 41 45 dd a4 40 45 17 4c b4 44
       19.107164 3094.5889 3082.304 1442.3778
000150 09 74 4e c4 7b 01 4e c4 f7 26 84 3f 88 34 4b 43
       -825.81305 -824.02313 1.0324391 203.2052
000160 c3 4c 0a c5 5f 54 c2 44 6b ac 16 44 82 7e 52 43
       -2212.7976 1554.6366 602.69403 210.49417
000170 eb 50 54 42 75 92 e1 40 9d 92 44 c3 00 54 12 43
       53.07902 7.049128 -196.57271 146.32812
000180 94 c2 6c c4 9a a4 83 43 1f 99 2e c2 0f f0 fc c2
       -947.0403 263.28595 -43.649532 -126.468864
000190 4a a0 f4 c3 ac 42 8c 42 96 9e 27 c4 5e 77 30 43
       -489.25226 70.13022 -670.4779 176.46628
0001a0 43 a9 9e c3 96 19 a3 c0 55 73 f6 c3 63 be 66 43
       -317.32236 -5.0968733 -492.90103 230.7437
0001b0 73 a4 e8 42 b6 34 2d c2 e3 e2 01 44 04 5f cd 43
       116.32119 -43.301476 519.5451 410.7423
0001c0 8c 69 0d 43 e4 e9 97 c1 0a 9a a0 bf 45 6e 55 c4
       141.4123 -18.989204 -1.2547009 -853.72296
0001d0 b2 15 0b c5 dd 4d b4 42 eb 97 2b c5 af b9 4b c2
       -2225.356 90.15208 -2745.4949 -50.93133
0001e0 a6 d6 10 c3 d4 2a 20 43 da d6 89 43 51 dc 8f 43
       -144.83847 160.1673 275.67853 287.72122
0001f0 9a 55 87 42 65 04 99 43 18 bf 3a c4 24 c3 05 c0
       67.66719 306.03433 -746.98584 -2.0900354
000200 18 27 a2 42 6f 8b 1c c2 2d 72 08 44 f9 a9 2e c2
       81.076355 -39.136166 545.784 -43.66599
000210 5c 1f 09 43 48 45 99 c3 c3 1e 73 c0 dd ce 33 41
       137.1225 -306.54126 -3.7987525 11.238004
000220 c0 e3 d0 c2 28 c1 94 41 69 c5 84 c2 85 22 24 c3
       -104.444824 18.594315 -66.38557 -164.13484
000230 4d b2 a0 c2 28 62 9c c2 7e 13 02 c4 0b ff 9c c0
       -80.34824 -78.19171 -520.30457 -4.906133
000240 f8 5d 8e 42 02 e2 ba c4 cc d9 c9 42 02 63 56 c4
       71.18353 -1495.0627 100.925385 -857.547
000250 81 63 88 42 99 41 3c 43 6e cf 41 42 d2 c0 b6 c3
       68.19434 188.25624 48.452568 -365.5064
000260 f3 23 04 c5 41 f6 2b c2 5f d3 62 c5 1f c3 47 42
       -2114.2468 -42.990482 -3629.2107 49.940548
000270 5c 1e 9f c1 69 53 68 c3 3a dc 98 42 23 71 1a 3e
       -19.889824 -232.32582 76.43013 0.1508222
000280 24 a0 4e bd bd 26 44 be b9 3f a9 3c 46 8c 72 bb
       -0.05044569 -0.19155402 0.020660268 -0.003700988
000290 4e 70 88 ba 50 ab 31 3e 5b d2 11 b7 77 37 0f bc
       -0.0010409446 0.17350507 -8.691651e-06 -0.008741251
0002a0 66 2d 9f 3b c9 6b 6e ba 26 a8 1b bd fc 54 2e 3d
       0.004857707 -0.0009095041 -0.038002156 0.042561516
0002b0 97 e8 ee 3d a6 16 3c ba 31 13 6d bc 35 86 c9 3c
       0.11665457 -0.0007175006 -0.014469908 0.024600128
0002c0 a7 e1 34 bd b3 06 01 3b ef 3e 87 bc 06 38 a6 3e
       -0.04416051 0.001968783 -0.016509501 0.32464617
0002d0 06 c4 6a 3e 03 e2 58 3c 01 94 8a 3c c5 79 50 3b
       0.2292634 0.013237479 0.016916277 0.0031810862
0002e0 0f 9b da 3c a3 0c 4d 3b fd 57 9e bb 2f 6b eb bc
       0.026685266 0.003128805 -0.0048322664 -0.028737633
0002f0 50 ba da bb 7e ba 9b 3b 2d 76 93 3b b9 2b a8 ba
       -0.006675042 0.004752456 0.0045001716 -0.0012830413
000300 5b 62 c5 ba ad a9 13 3c 38 3d 25 3d 06 5a 27 3d
       -0.001505922 0.009012622 0.040341586 0.040857337
000310 3f c7 bf bc 24 a2 02 3c 67 18 4b bc 06 6d ce 3c
       -0.023410438 0.007973228 -0.012395955 0.02519847
000320 5a cb 35 3c 45 5b 89 bb ef df 5e 3d 8c 66 2b 3b
       0.011095846 -0.0041917884 0.05441278 0.0026153652
000330 42 b1 ef 3d c2 a2 12 bc ba 7a 93 3a 5d 31 2d ba
       0.11703731 -0.008949937 0.0011251785 -0.0006606782
000340 94 a4 87 bb 0b c2 1e bb fb 07 a3 3a 22 d6 21 bb
       -0.0041394923 -0.0024224545 0.0012438291 -0.0024694283
000350 97 93 23 3c cf 23 2f bc 68 d8 0b 3c e4 05 1c 3b
       0.009983919 -0.01068969 0.008535482 0.0023807222
000360 4f a4 85 39 27 64 db 39 51 ab ec 39 0c 40 d4 ba
       0.00025490156 0.00041845554 0.00045141068 -0.0016193404
000370 12 f4 95 b9 a9 df 36 3b b9 35 18 3a 8a d5 81 bc
       -0.0002860134 0.0027904308 0.0005806345 -0.015848894
000380 5b c2 e0 3c cd 7e 65 bb de d9 5e 39 f4 e6 31 ba
       0.027436426 -0.0035018206 0.00021252732 -0.0006786429
000390 9c 7a 6a 39 6f aa bd 3a 97 3a 57 3b 2e 9f 0c ba
       0.00022361655 0.0014470349 0.0032841319 -0.0005364296
0003a0 f3 66 f3 b9 2b d9 34 3a 37 57 d7 ba 03 2b 9f 39
       -0.00046425275 0.00068988156 -0.001642919 0.0003035889
0003b0 9b 4f 08 3a 4a 39 bd b8 fe fe 7b b8 35 e6 92 ba
       0.00051998504 -9.022893e-05 -6.0080543e-05 -0.0011207523
0003c0 44 0c c6 b8 42 40 45 ba 38 c5 9f 38 51 cb 2a 3b
       -9.4436604e-05 -0.0007524529 7.618446e-05 0.0026061127
0003d0 e1 02 e7 b6 3d 4b 2f b9 fb 77 dd 3a 25 75 02 bc
       -6.8846716e-06 -0.00016717329 0.0016896719 -0.0079625
0003e0 8f 82 d8 b8 b4 92 50 39 24 a8 0a 3c b7 21 ff b9
       -0.00010324001 0.00019891077 0.008462939 -0.0004866251
0003f0 fd 7a b0 3a 81 b5 20 3b 2e 74 c1 39 20 de d8 39
       0.0013464388 0.0024522247 0.0003689839 0.00041364226

variational_strategy.base_variational_strategy._variational_distribution.natural_mat f4 [5, 159, 159]
000000 43 74 88 c7 05 36 f4 45 9b 3d 16 45 8b aa 96 c6
       -69864.52 7814.7524 2403.8503 -19285.271
000010 37 db 82 c4 c1 9c 77 44 5b e2 35 c8 39 0c 9f c7
       -1046.8505 990.4493 -186249.42 -81432.445
000020 41 e6 d5 c3 ef 89 42 c8 c7 9c 3b c6 d0 2f 0c 46
       -427.79886 -199207.73 -12007.194 8971.953
000030 af fc 06 46 de 04 21 c8 b6 05 48 c5 d0 ad ba c7
       8639.171 -164883.47 -3200.357 -95579.625
000040 c0 8e c8 45 a5 7d 54 c5 c6 80 22 47 31 5c 6b 45
       6417.8438 -3399.8528 41600.773 3765.762
000050 aa c6 47 c7 30 52 64 42 c0 46 1d 47 f3 4a 9c c6
       -51142.664 57.08026 40262.75 -20005.475
000060 7b 95 40 c5 63 96 8a 47 76 9e 78 c7 13 d5 85 c3
       -3081.3425 70956.77 -63646.46 -267.66464
000070 86 1f d6 46 e9 3a 7a c7 ce 34 7c c4 c7 87 10 46
       27407.762 -64058.91 -1008.8251 9249.944
000080 ba 3b e1 c6 23 f1 31 c4 54 77 ef 43 66 a4 ae c4
       -28829.863 -711.76776 478.93225 -1397.1375
000090 70 81 16 45 9c 08 43 c3 d9 f4 36 46 ea b1 4e 45
       2408.0898 -195.03363 11709.212 3307.1196
0000a0 4c c0 8a 43 b3 6c 31 c3 fb ff fd c2 32 bb a1 c4
       277.50232 -177.4246 -126.99996 -1293.8499
0000b0 6f 16 a3 44 39 e4 2a c5 30 d1 37 c5 2d 86 6f 40
       1304.701 -2734.264 -2941.0742 3.7425644
0000c0 4e 08 6a c0 ca 6e 8b c5 90 14 a7 45 95 3e 51 c4
       -3.6567569 -4461.8486 5346.5703 -836.97784
0000d0 b3 54 74 44 0e c2 18 45 98 e0 3d 43 df 29 1b c4
       977.3234 2444.1284 189.87732 -620.65424
0000e0 cc 15 93 c4 ad 4c 97 44 02 99 01 c5 57 30 5e 45
       -1176.6812 1210.3961 -2073.563 3555.0212
0000f0 a3 9e 13 c6 a3 ae ed 42 74 7d 20 44 a4 d1 bd c4
       -9447.659 118.84109 641.9602 -1518.5513
000100 5f 0b a5 c4 89 9a 3c 42 10 bd 29 44 84 1d d8 42
       -1320.3553 47.150913 678.9541 108.05765
000110 52 59 11 c4 c6 8a 75 c3 82 d1 f6 bf c5 31 92 c0
       -581.3956 -245.54208 -1.9282687 -4.5685754
000120 3c 56 b2 43 94 19 8b c1 a6 50 38 44 82 29 ab 42
       356.6737 -17.38749 737.26013 85.58107
000130 41 e8 d9 c3 32 b6 0e 44 c6 5d 22 41 42 de 7b 43
       -435.81448 570.8468 10.147894 251.8682
000140 97 d3 59 3f bd 9a b4 43 93 f3 a3 c4 b5 ed bf c2
       0.85088485 361.2089 -1311.6117 -95.96427
000150 2e 97 21 c3 ee 4a e0 c3 09 74 4e bf 89 9b 0e 42
       -161.59055 -448.5854 -0.80645806 35.65189
000160 36 f7 60 c4 c8 da 0b c4 20 11 7b c3 f3 a0 8c c1
       -899.8627 -559.41846 -251.0669 -17.578588
000170 69 c7 e6 c1 df 15 5a bf fc 9c c6 41 b1 a8 b5 c1
       -28.847368 -0.8518962 24.826653 -22.707369
000180 2e 27 2a c2 ba d4 30 42 3e 76 ff c2 18 7a 51 c3
       -42.53826 44.20774 -127.73094 -209.47693
000190 f7 a1 1a c1 3c 66 59 42 2d 54 30 c3 0b 14 e6 c1
       -9.664542 54.34984 -176.32881 -28.759787
0001a0 59 14 48 c3 a7 6a c4 3e be 7d 9f c1 9c 78 6f c3
       -200.07948 0.3836262 -19.936398 -239.47113
0001b0 ed 68 80 41 69 e2 58 42 0e e6 bb 42 bc c8 23 c3
       16.051233 54.221104 93.949326 -163.78412
0001c0 55 d4 a8 bf c0 d7 b6 42 0b 19 9c c2 90 e5 43 c1
       -1.3189799 91.42139 -78.04891 -12.243546
0001d0 1f ce b1 c2 3a 33 57 41 d2 e0 ba c2 b6 c4 ad 41
       -88.90258 13.4500065 -93.4391 21.72105
0001e0 68 15 bc 41 f3 f7 77 c2 f6 79 44 41 d1 de d5 42
       23.510452 -61.992138 12.279776 106.93519
0001f0 c6 f1 be 40 1e 27 25 42 b0 1c 00 c3 30 45 e5 c1
       5.9670134 41.2882 -128.11206 -28.658783
000200 33 4f 99 c2 9a c8 ac c1 30 e1 1d c2 91 49 2d 41
       -76.654686 -21.59795 -39.46991 10.830461
000210 b8 18 92 41 e9 6f 11 c3 9c ec 03 bf 42 e6 19 c1
       18.26207 -145.43715 -0.5153291 -9.618715
000220 b7 ea 23 c2 bf f7 f1 40 29 34 4b c3 da 2b 1d 41
       -40.979214 7.5614924 -203.20375 9.823206
000230 48 d2 da c1 88 4d d4 c1 11 c2 36 c2 dd aa 25 c2
       -27.352676 -26.537857 -45.689518 -41.41686
000240 a4 8c 8e c1 e7 97 bc c2 3c 3e 0a c1 1d 15 ad c2
       -17.818672 -94.296684 -8.640194 -86.54124
000250 80 6a 38 41 ea 2b c1 c0 c5 fd 6d c2 05 41 a7 c2
       11.526001 -6.0366106 -59.49782 -83.62699
000260 74 68 02 c3 48 66 ac 3f 91 17 87 c1 0b e3 81 c0
       -130.40802 1.3468714 -16.886507 -4.058965
000270 98 49 76 be 4b 4d 60 c1 9a e8 9f 41 05 36 f4 45
       -0.24051511 -14.01887 19.988575 7814.7524
000280 c6 ec 3c c5 49 11 de c4 8f 57 8c 46 a0 d8 83 c3
       -3022.7983 -1776.5402 17963.78 -263.69238
000290 0d e2 22 c4 ea f6 fb c5 42 c8 4d 46 08 52 37 c3
       -651.53204 -8062.8643 13170.064 -183.32043
0002a0 75 03 a2 46 44 17 6c c4 6f e5 f6 c5 45 9c ce 46
       20737.729 -944.3635 -7900.679 26446.135
0002b0 a0 9c 48 c6 be 99 96 45 75 21 b7 46 fb 5d c1 45
       -12839.156 4819.218 23440.729 6187.7476
0002c0 f5 22 21 43 f9 68 95 c4 31 bb 5d c4 cb c5 eb 45
       161.13655 -1195.2804 -886.92487 7544.724
0002d0 39 4b 14 c0 a1 5c 9d c5 88 00 ce c4 54 ae 72 c5
       -2.3170912 -5035.5786 -1648.0166 -3882.8955
0002e0 e6 d8 fc c4 28 aa de 45 e8 a9 88 c5 6a 58 b6 45
       -2022.7781 7125.2695 -4373.2383 5835.052
0002f0 20 ca ee 45 ab d1 4d 43 0d 23 19 c5 70 ff 17 45
       7641.2656 205.81902 -2450.1907 2431.9648
000300 da b6 10 42 b3 ea c7 45 99 59 c4 41 e2 e1 0d c3
       36.178566 6397.3374 24.543749 -141.88235
000310 91 58 83 c1 db 3f 8c c4 7c c3 66 41 cc 2a 7e c2
       -16.418245 -1121.9955 14.422726 -63.541794
000320 39 b8 a8 c0 1a f3 15 42 8c 2b 1e c5 dd 33 34 44
       -5.272488 37.487404 -2530.7217 720.81036
000330 73 69 9a c3 33 7c 6b 44 f6 37 52 bd 30 a5 17 c0
       -308.82382 941.9406 -0.0513229 -2.3694572
000340 72 0f 90 44 69 2b f8 c4 f0 a6 ac 42 7c e4 9a c4
       1152.4827 -1985.3566 86.32605 -1239.1401
000350 22 d3 9f 43 07 d0 38 c3 83 5d 85 40 ee 6b ff 43
       319.64948 -184.8126 4.167665 510.8432
000360 0d 80 f2 42 0e f8 ba 44 fd a6 46 c2 fb 3b a7 c3
       121.2501 1495.7517 -49.663074 -334.4686
000370 3f 4f 73 41 eb 95 6b c3 c2 5c b1 43 86 4e fc c1
       15.206847 -235.58562 354.72467 -31.538342
000380 f4 dc 82 c1 a7 ac 0e c3 57 6a 23 c1 f0 b1 0b 43
       -16.357887 -142.67442 -10.213462 139.69507
000390 d8 a2 38 42 08 c2 f0 bd 5b 6a 2f c2 a4 5d 2c c2
       46.159027 -0.117557585 -43.853863 -43.091446
0003a0 d4 d6 d6 c0 7b 12 87 c3 8a 03 2d c3 9d 84 2c 43
       -6.713724 -270.14438 -173.01382 172.51802
0003b0 58 4f 83 c3 6b 6c bf bf c3 7f 43 c3 1b 81 b5 be
       -262.61987 -1.4954962 -195.49907 -0.35450062
0003c0 66 e3 11 c3 4a 37 2e 44 b1 df f8 42 31 f3 b0 40
       -145.88828 696.8639 124.4369 5.5296865
0003d0 b7 04 b4 42 8a 94 0a 3e 5c ac fe c1 0c a1 fe 41
       90.00921 0.13533226 -31.83416 31.828636
0003e0 ab d6 9f 43 9a 93 8d 42 53 74 2f 41 c5 45 92 41
       319.6771 70.788284 10.965899 18.284067
0003f0 fb dc 15 3f 06 a6 92 42 3f 50 6f 41 2e fd 15 c2
       0.58540314 73.324265 14.957091 -37.497246

mean_module.raw_constant f4 [5]
000000 98 eb 2e 3f b4 ff d6 bc 8e b4 71 3f 94 58 a9 3d
       0.6832824 -0.026244976 0.9441613 0.08268848
000010 b1 31 b0 3c
       0.02150807

covar_module.raw_mixture_weights f4 [5, 6]
000000 a2 15 0c bf 68 0a 0c bf bd 0e 0c bf a5 15 0c bf
       -0.5472051 -0.5470338 -0.5470999 -0.54720527
000010 a2 15 0c bf 68 0a 0c bf f3 4d 51 bf ea 4d 51 bf
       -0.5472051 -0.5470338 -0.81759566 -0.8175951
000020 f3 4d 51 bf ef 4d 51 bf f3 4d 51 bf ea 4d 51 bf
       -0.81759566 -0.8175954 -0.81759566 -0.8175951
000030 77 7d 1a bf 01 7d 1a bf 7b 7e 1a bf e1 7a 1a bf
       -0.60347694 -0.6034699 -0.60349244 -0.6034375
000040 77 7d 1a bf 01 7d 1a bf fb b0 4c bf ec b1 4c bf
       -0.60347694 -0.6034699 -0.7995755 -0.7995899
000050 0d b1 4c bf f8 b2 4c bf fb b0 4c bf ec b1 4c bf
       -0.7995766 -0.79960585 -0.7995755 -0.7995899
000060 a6 83 85 bf 47 83 85 bf fc 82 85 bf 17 83 85 bf
       -1.0430801 -1.0430688 -1.0430598 -1.043063
000070 a6 83 85 bf 47 83 85 bf
       -1.0430801 -1.0430688

covar_module.raw_mixture_means f4 [5, 6, 1, 3]
000000 b2 ac 0a c0 80 21 b8 bf 74 1b 31 c0 cd af 0a c0
       -2.1667905 -1.4385223 -2.7673006 -2.16698
000010 93 22 b8 bf 15 1d 31 c0 13 ab 0a c0 73 1f b8 bf
       -1.4385551 -2.7674 -2.1666915 -1.4384598
000020 82 1c 31 c0 c8 ac 0a c0 5c 2e b8 bf bc 1b 31 c0
       -2.767365 -2.1667957 -1.4389148 -2.7673178
000030 b2 ac 0a c0 80 21 b8 bf 74 1b 31 c0 cd af 0a c0
       -2.1667905 -1.4385223 -2.7673006 -2.16698
000040 93 22 b8 bf 15 1d 31 c0 29 f5 1e c0 d5 48 c2 bf
       -1.4385551 -2.7674 -2.4837134 -1.5178477
000050 0b cb 42 c0 2d f5 1e c0 e5 48 c2 bf 11 cb 42 c0
       -3.0436428 -2.4837143 -1.5178496 -3.0436442
000060 29 f5 1e c0 90 48 c2 bf 0b cb 42 c0 31 f5 1e c0
       -2.4837134 -1.5178394 -3.0436428 -2.4837153
000070 bf 48 c2 bf 0f cb 42 c0 29 f5 1e c0 d5 48 c2 bf
       -1.517845 -3.0436437 -2.4837134 -1.5178477
000080 0b cb 42 c0 2d f5 1e c0 e5 48 c2 bf 11 cb 42 c0
       -3.0436428 -2.4837143 -1.5178496 -3.0436442
000090 f2 29 0e c0 98 88 83 bf 0e 4c 36 c0 63 29 0e c0
       -2.2213101 -1.027606 -2.848392 -2.221276
0000a0 d3 88 83 bf cc 4b 36 c0 ae 28 0e c0 9b 82 83 bf
       -1.027613 -2.8483763 -2.221233 -1.0274233
0000b0 d8 4b 36 c0 43 2a 0e c0 71 88 83 bf 19 4b 36 c0
       -2.8483791 -2.2213295 -1.0276014 -2.8483336
0000c0 f2 29 0e c0 98 88 83 bf 0e 4c 36 c0 63 29 0e c0
       -2.2213101 -1.027606 -2.848392 -2.221276
0000d0 d3 88 83 bf cc 4b 36 c0 0b 10 fe bf 89 de 16 c0
       -1.027613 -2.8483763 -1.9848646 -2.3573325
0000e0 e3 b5 59 c0 af 13 fe bf 43 e1 16 c0 94 b8 59 c0
       -3.4017265 -1.9849757 -2.357499 -3.4018908
0000f0 41 10 fe bf 16 e4 16 c0 a8 ba 59 c0 c6 0f fe bf
       -1.984871 -2.3576713 -3.4020176 -1.9848564
000100 39 e7 16 c0 13 ba 59 c0 0b 10 fe bf 89 de 16 c0
       -2.3578627 -3.401982 -1.9848646 -2.3573325
000110 e3 b5 59 c0 af 13 fe bf 43 e1 16 c0 94 b8 59 c0
       -3.4017265 -1.9849757 -2.357499 -3.4018908
000120 36 b5 1c c0 b2 36 b7 bf 6a 6d 35 c0 7e b5 1c c0
       -2.4485602 -1.4313567 -2.834803 -2.4485774
000130 30 36 b7 bf 70 6d 35 c0 63 b5 1c c0 01 36 b7 bf
       -1.4313412 -2.8348045 -2.448571 -1.4313356
000140 30 6d 35 c0 d9 b5 1c c0 9d 34 b7 bf 52 6d 35 c0
       -2.8347893 -2.448599 -1.4312931 -2.8347974
000150 36 b5 1c c0 b2 36 b7 bf 6a 6d 35 c0 7e b5 1c c0
       -2.4485602 -1.4313567 -2.834803 -2.4485774
000160 30 36 b7 bf 70 6d 35 c0
       -1.4313412 -2.8348045

covar_module.raw_mixture_scales f4 [5, 6, 1, 3]
000000 9c cd 15 c0 c0 ac e7 bf 9b 28 56 c0 7c ce 15 c0
       -2.3406744 -1.8099594 -3.3462284 -2.3407278
000010 56 b1 e7 bf 78 27 56 c0 da ce 15 c0 a0 b0 e7 bf
       -1.8100994 -3.346159 -2.3407502 -1.8100777
000020 dd 29 56 c0 9c cd 15 c0 ad ab e7 bf a0 25 56 c0
       -3.3463051 -2.3406744 -1.8099266 -3.3460464
000030 9c cd 15 c0 c0 ac e7 bf 9b 28 56 c0 7c ce 15 c0
       -2.3406744 -1.8099594 -3.3462284 -2.3407278
000040 56 b1 e7 bf 78 27 56 c0 c7 32 24 c0 bf 03 bd bf
       -1.8100994 -3.346159 -2.5655992 -1.4766768
000050 3f 09 57 c0 d7 32 24 c0 5a 03 bd bf 42 09 57 c0
       -3.3599393 -2.565603 -1.4766648 -3.35994
000060 c7 32 24 c0 44 03 bd bf 3e 09 57 c0 c1 32 24 c0
       -2.5655992 -1.4766622 -3.359939 -2.5655978
000070 84 03 bd bf 3a 09 57 c0 c7 32 24 c0 bf 03 bd bf
       -1.4766698 -3.3599381 -2.5655992 -1.4766768
000080 3f 09 57 c0 d7 32 24 c0 5a 03 bd bf 42 09 57 c0
       -3.3599393 -2.565603 -1.4766648 -3.35994
000090 91 84 1d c0 63 e4 9a bf 42 a2 69 c0 aa 84 1d c0
       -2.4612162 -1.2100948 -3.6505284 -2.4612222
0000a0 b0 e5 9a bf 95 a2 69 c0 14 85 1d c0 a1 e6 9a bf
       -1.2101345 -3.6505482 -2.4612474 -1.2101632
0000b0 26 a2 69 c0 72 84 1d c0 ed e5 9a bf 90 a2 69 c0
       -3.6505218 -2.4612088 -1.2101418 -3.650547
0000c0 91 84 1d c0 63 e4 9a bf 42 a2 69 c0 aa 84 1d c0
       -2.4612162 -1.2100948 -3.6505284 -2.4612222
0000d0 b0 e5 9a bf 95 a2 69 c0 e4 4c 30 c0 a7 5e 12 c0
       -1.2101345 -3.6505482 -2.754693 -2.2870271
0000e0 f1 54 65 c0 4b 52 30 c0 c2 62 12 c0 c1 55 65 c0
       -3.5833094 -2.7550228 -2.2872777 -3.583359
0000f0 f5 51 30 c0 c4 5f 12 c0 ca 57 65 c0 ff 4d 30 c0
       -2.7550023 -2.287095 -3.5834832 -2.7547605
000100 e6 66 12 c0 d1 55 65 c0 e4 4c 30 c0 a7 5e 12 c0
       -2.2875304 -3.5833628 -2.754693 -2.2870271
000110 f1 54 65 c0 4b 52 30 c0 c2 62 12 c0 c1 55 65 c0
       -3.5833094 -2.7550228 -2.2872777 -3.583359
000120 72 fe 2f c0 ed 54 d4 bf 07 82 80 c0 04 fe 2f c0
       -2.749905 -1.6588417 -4.0158725 -2.749879
000130 41 55 d4 bf f8 81 80 c0 49 fe 2f c0 3c 4f d4 bf
       -1.6588517 -4.0158653 -2.7498953 -1.658668
000140 25 82 80 c0 93 fe 2f c0 91 51 d4 bf ed 81 80 c0
       -4.015887 -2.749913 -1.6587392 -4.01586
000150 72 fe 2f c0 ed 54 d4 bf 07 82 80 c0 04 fe 2f c0
       -2.749905 -1.6588417 -4.0158725 -2.749879
000160 41 55 d4 bf f8 81 80 c0
       -1.6588517 -4.0158653
