mogp_model_state_psNGc.pth (torch, 317301 bytes, 8 tensors)

variational_strategy.lmc_coefficients f4 [3, 3]
0.24567823 0.007221982 -0.49288008 -0.05163151 0.17683536 0.021418722 -0.32265958 -0.006422509
-0.3916419
00000000: 1393 7b3e 60a6 ec3b c75a fcbe 907b 53bd
00000010: 5414 353e 5176 af3c a333 a5be e973 d2bb
00000020: 4a85 c8be

variational_strategy.base_variational_strategy.inducing_points f4 [3, 159, 3]
-0.19711313 -0.11548 -0.45928183 0.9156021 0.011782296 0.63821876 -0.6834908 -1.4474081
-0.30948147 -2.7127938 -7.9881034 -0.2110232 0.32549733 1.9752542 -0.5499832 0.75090253
1.02479 -0.12080567 0.1255463 1.3601563 -1.1068254 0.019935079 -7.068969 9.901647
-0.61621624 -0.46591505 1.0387021 0.6190203 -0.3338199 -0.9726738 -0.08340646 0.6089004
0.26165006 0.82471067 0.85108113 -0.76769024 -0.4148708 -0.77412987 0.24632415 0.25938603
-7.830758 -8.78079 0.5858322 -0.78347254 -0.5022768 -0.75559825 -0.78881705 0.4937734
-3.84516 0.03187936 -0.10264474 -0.35691652 -0.5150374 0.97434896 0.45706064 -0.25308296
0.9234336 -0.86558324 0.8543059 -0.77755535 0.43331152 -0.48263013 -0.25082964 -0.80000114
0.37438652 0.08591698 -1.1815768 8.903672 1.2542806 -0.9828263 -0.3250288 -0.93156886
-0.13926561 0.73457897 -0.925907 -0.4660497 0.992683 0.8217567 0.12834126 0.9073279
0.11983849 1.0233991 -1.1674744 0.07258019 -0.99682534 1.7170795 -1.2031403 -3.2324934
-1.2442691 1.0061488 0.69987243 -2.2698636 -2.834053 -3.3406994 0.69911546 -8.895624
-0.6058533 0.9192592 0.04738131 -1.025108 10.758649 -1.8897496 0.4323773 1.8208352
-0.33893102 0.7777539 -7.1031265 -0.2157623 -0.4130935 1.2889533 -0.8549222 -0.84419143
0.8757101 0.6408446 -0.4769202 -1.1142412 -0.6477033 -0.8727575 -0.71940625 -0.117448606
3.719105 5.4849977 5.183917 0.6483762 1.0944636 -1.0220734 -0.5134417 0.0619182
10.339206 -1.2334245 10.342277 0.80639905 -0.28919148 0.9950358 0.7522845 0.15140018
0.43170476 -0.6517225 -0.84830064 -0.53976005 -0.71527094 -0.93483126 0.08790179 0.09371349
-0.823738 -0.5634361 0.83255816 -2.7904315 -8.950604 -0.23415622 -0.70280117 0.7615778
-0.81812584 -0.18473962 2.3761947 0.095721625 0.61629295 -0.68963176 0.23196378 0.8523931
-0.17003416 -0.34856832 1.0146934 0.12958641 -0.4871118 -0.518503 -0.7358902 -1.0794483
0.6115929 0.54638374 -0.535412 0.50957674 0.4934102 0.10516387 0.9170687 1.0166239
-0.13969104 -0.74478173 -1.709241 -0.62932 -0.5217224 0.32301876 -0.54190737 -1.3135587
12.034492 1.2243897 0.18254216 2.7288618 0.34098935 -0.004355429 0.9070837 0.79141414
0.67133385 0.84571546 0.47296172 -0.83771163 2.6635544 -1.1759921 -0.8119812 -0.44870508
1.2523103 -0.90716183 1.2898268 -3.312383 -0.19792739 -0.781222 0.59121215 0.23358278
0.49957168 0.65013784 -0.46652207 -0.37102452 0.68184376 -0.0037674878 -0.4577709 0.3852004
0.2374747 -5.793318 0.49979743 0.4535317 0.49244788 -0.88850176 0.38892898 -1.0588423
-1.025639 0.18580998 0.77535015 1.036167 0.6072404 4.9897876 -0.10945563 0.6770483
-0.8677286 0.82058865 -0.65983987 1.452415 0.60754776 2.3314354 -1.87001 4.079032
0.0687424 -0.18308808 0.882586 -3.8800862 0.14665188 0.3586004 -0.9978062 0.43509004
-0.51560545 -0.31952065 -0.68560266 -0.33960614 1.3162167 2.4849205 2.3830593 0.28511783
00000000: 06d8 49be c780 ecbd fd26 ebbe e664 6a3f
00000010: 880a 413c 4e62 233f 41f9 2ebf ab44 b9bf
00000020: 5b74 9ebe 6a9e 2dc0 8b9e ffc0 7716 58be
00000030: 96a7 a63e 21d5 fc3f b3cb 0cbf 263b 403f
00000040: 522c 833f f768 f7bd 368f 003e 9a19 ae3f
00000050: 74ac 8dbf e44e a33c fe34 e2c0 256d 1e41
00000060: 59c0 1dbf 6b8c eebe 31f4 843f 1d78 1e3f
00000070: 71ea aabe 2601 79bf 02d1 aabd e6e0 1b3f
00000080: fff6 853e 3d20 533f 74e0 593f 5987 44bf
00000090: f269 d4be 602d 46bf 663c 7c3e 3fce 843e
000000a0: 9295 fac0 1e7e 0cc1 19f9 153f a891 48bf
000000b0: 3695 00bf e36e 41bf eaef 49bf decf fc3e
000000c0: 1a17 76c0 ef93 023d 6837 d2bd c3bd b6be
000000d0: 7ed9 03bf ef6e 793f da03 ea3e 1794 81be
000000e0: 2566 6c3f dd96 5dbf cbb3 5a3f de0d 47bf
000000f0: 02db dd3e 4c1b f7be be6c 80be e0cc 4cbf
00000100: 97af bf3e 3ef5 af3d e93d 97bf 7175 0e41
00000110: 448c a03f 819a 7bbf 2d6a a6be 4c7b 6ebf
00000120: a59b 0ebe 5e0d 3c3f 3e08 6dbf 119e eebe
00000130: 7920 7e3f a65e 523f e46b 033e a446 683f
00000140: e26d f53d befe 823f cd6f 95bf eca4 943d
00000150: f22f 7fbf 43c9 db3f 8000 9abf 2ce1 4ec0
00000160: 3644 9fbf 7cc9 803f d72a 333f 7245 11c0
00000170: 2061 35c0 05ce 55c0 3bf9 323f 7a54 0ec1
00000180: 3419 1bbf 9254 6b3f e812 423d bd36 83bf
00000190: 6d23 2c41 51e3 f1bf 8f60 dd3e 2111 e93f
000001a0: 5e88 adbe e11a 473f d04c e3c0 cbf0 5cbe
000001b0: fe80 d3be 6cfc a43f 2edc 5abf ee1c 58bf
000001c0: 8a2e 603f 640e 243f e22e f4be 759f 8ebf
000001d0: e2cf 25bf 096d 5fbf 022b 38bf e588 f0bd
000001e0: d105 6e40 1a85 af40 a6e2 a540 fcfb 253f
000001f0: 6217 8c3f 4dd3 82bf ea70 03bf f09d 7d3d
00000200: 636d 2541 dbe0 9dbf f779 2541 2b70 4e3f
00000210: e810 94be abba 7e3f b895 403f a608 1b3e
00000220: 6808 dd3e 49d7 26bf 3b2a 59bf b72d 0abf
00000230: ff1b 37bf 1a51 6fbf db05 b43d dcec bf3d
00000240: 7ee0 52bf 593d 10bf 8822 553f 6e96 32c0
00000250: ad35 0fc1 a6c6 6fbe c7ea 33bf c3f6 423f
00000260: b270 51bf 622c 3dbe 9313 1840 b309 c43d
00000270: 60c5 1d3f b58b 30bf ea87 6d3e 6f36 5a3f
00000280: 6f1d 2ebe 8c77 b2be 79e1 813f 4db2 043e
00000290: b866 f9be 9dbc 04bf 4d63 3cbf 5d2b 8abf
000002a0: 5a91 1c3f cedf 0b3f c310 09bf 9f73 023f
000002b0: 43a0 fc3e 2860 d73d 04c5 6a3f bb20 823f
000002c0: 2b0b 0fbe 04aa 3ebf 69c8 dabf 1e1b 21bf
000002d0: 998f 05bf b762 a53e 71ba 0abf b122 a8bf
000002e0: 478d 4041 cdb8 9c3f 55ec 3a3e aca5 2e40
000002f0: 2896 ae3e fdb7 8ebb a336 683f 1e9a 4a3f
00000300: 89dc 2b3f cf80 583f 0a28 f23e 4574 56bf
00000310: ad77 2a40 e986 96bf 00de 4fbf acbc e5be
00000320: b44b a03f c23b 68bf 0b19 a53f 15fe 53c0
00000330: 7aad 4abe 2afe 47bf ae59 173f 5330 6f3e
00000340: dcc7 ff3e 6f6f 263f fbdb eebe edf6 bdbe
00000350: 508d 2e3f f5e7 76bb f360 eabe fd38 c53e
00000360: 912c 733e dc62 b9c0 73e5 ff3e 4f35 e83e
00000370: 2122 fc3e da74 63bf b321 c73e 2588 87bf
00000380: 2448 83bf f944 3e3e 597d 463f 1fa1 843f
00000390: 1b74 1b3f 57ac 9f40 462a e0bd 0a53 2d3f
000003a0: 7623 5ebf 1912 523f 44eb 28bf bce8 b93f
000003b0: 4088 1b3f 3d36 1540 7d5c efbf 6e87 8240
000003c0: d1c8 8c3d 717b 3bbe 28f1 613f 5553 78c0
000003d0: e92b 163e 799a b73e 3a70 7fbf 1fc4 de3e
000003e0: b8fe 03bf 3698 a3be a883 2fbf dbe0 adbe
000003f0: ca79 a83f f008 1f40 0b84 1840 f7fa 913e

variational_strategy.base_variational_strategy._variational_distribution.natural_vec f4 [3, 159]
42810.11 -12893.665 17542.557 -0.7625919 -27222.994 -24734.822 3386.2212 1532.8341
24801.902 -14308.103 24426.812 -1861.8717 4129.3975 988.2448 4498.801 5658.4795
-67.32949 9923.215 2369.7563 -8764.375 1984.9119 -7194.8677 24.861654 2633.0586
-7569.792 -8183.1997 5392.7085 526.32385 1057.9573 -60.70301 1845.7008 2.3236654
-3120.3435 -88.881195 -2922.6926 959.6476 -4783.0747 2514.572 -380.66138 1891.7017
24.263252 1000.3973 -131.28363 -165.77034 -5965.534 5814.8574 -352.91245 -430.78223
-342.12454 73.02034 405.6873 -3094.5022 835.0322 -1456.2166 -3513.8384 1169.2551
-4995.383 -6329.3325 -348.00174 1953.2897 -3508.8037 -97.98992 469.8991 3308.2793
-2320.4526 689.10803 -15.607778 -13.743903 7306.6743 1477.3682 278.9149 6925.954
662.54926 -1729.5658 616.2053 235.04642 -194.34956 417.47845 -244.3744 -19.67231
786.3547 5.8297567 -230.794 -773.1131 -113.05194 -863.56555 2305.5898 780.99603
1628.5566 -1.6939331 -36.97562 924.40955 -1.412214 -32.653675 -50.248505 109.96215
-119.40932 107.099785 328.5272 -494.65063 -455.16153 -190.44104 785.0579 449.3973
326.6926 1.3810104 177.04652 -412.3994 123.34354 -36.92884 -80.71522 -180.43675
57.231293 56.981495 389.7325 -207.82135 169.12857 -180.20605 -91.29314 -176.67891
-13.28315 -90.81653 35.190163 -141.89159 -129.12123 -0.464688 -44.404976 -32.5351
72.89752 87.19427 74.69107 -7.7962537 -122.06271 -72.031845 79.21555 229.51949
7.440541 62.410007 -38.433174 215.62177 14.190871 10.912017 -5.60509 -59.05312
-118.215096 -59.588745 -3.7513196 11.858319 24.805511 -32.298267 23.912275 91.19061
56.920166 -108.42604 -57.10504 -17.046453 -17.605776 42.837395 198.65489 952424.3
-1.2273536e+06 -1.0420505e+06 719.46375 412427.78 -1.0271915e+06 4335.062 757591.2 -105869.56
710504.3 146127.73 271773.22 -165328.73 -1179.9492 99467.086 -38330.84 -1732.4756
157403.64 374.54932 -11902.19 847.3506 10785.829 4694.941 -11982.375 -17.136395
3143.5854 45284.723 -15887.043 1793.5527 -39968.156 -13395.74 3919.9062 -1337.4724
-32748.76 40655.727 -41947.863 -79533.11 54518.195 841.9143 11653.724 96534.63
155.7621 -10973.454 8520.532 401.33493 35779.63 -40252.945 4652.97 -20008.674
47781.473 -22103.852 -85.65471 2772.867 4.190473 26889.45 34184.17 -1970.2882
-4354.1494 -9404.074 -1281.3114 -5523.445 -1615.977 -806.60956 2477.23 -153.13109
17150.076 16879.484 -427.86047 6052.4023 12024.93 3920.9893 2452.2517 13098.922
-105.85583 -5400.7812 10503.452 6298.008 -177.08058 8941.239 -196.08327 -3644.4758
3.5461617 -11452.708 4813.615 2.4788857 -5444.3184 3137.1384 -1648.0789 7503.4277
979.12823 -2795.5166 8241.134 3913.3716 3480.5198 -1871.0077 -370.56134 -2349.9482
00000000: 1c3a 2747 a976 49c6 1d0d 8946 3939 43bf
00000010: fdad d4c6 a53d c1c6 8aa3 5345 b19a bf44
00000020: cec3 c146 6990 5fc6 a0d5 be46 e5bb e8c4
00000030: 2e0b 8145 ab0f 7744 6896 8c45 d6d3 b045
00000040: b3a8 86c2 dc0c 1b46 1a1c 1445 80f1 08c6
00000050: 2e1d f844 f1d6 e0c5 abe4 c641 f090 2445
00000060: 568e ecc5 99b9 ffc5 ab85 a845 ba94 0344
00000070: a23e 8444 e2cf 72c2 6db6 e644 efb6 1440
00000080: 7f05 43c5 2cc3 b1c2 15ab 36c5 72e9 6f44
00000090: 9978 95c5 2729 1d45 a854 bec3 7476 ec44
000000a0: 241b c241 6d19 7a44 9c48 03c3 35c5 25c3
000000b0: 466c bac5 dcb6 b545 cb74 b0c3 2064 d7c3
000000c0: f10f abc3 6a0a 9242 f9d7 ca43 0968 41c5
000000d0: 10c2 5044 ee06 b6c4 6a9d 5bc5 2a28 9244
000000e0: 101b 9cc5 a9ca c5c5 3900 aec3 4529 f444
000000f0: dc4c 5bc5 d7fa c3c2 16f3 ea43 78c4 4e45
00000100: 3e07 11c5 ea46 2c44 75b9 79c1 07e7 5bc1
00000110: 6555 e445 c8ab b844 1b75 8b43 a26f d845
00000120: 27a3 2544 1b32 d8c4 240d 1a44 e20b 6b43
00000130: 7d59 42c3 3ebd d043 d95f 74c3 e460 9dc1
00000140: b396 4444 5e8d ba40 44cb 66c3 3d47 41c4
00000150: 981a e2c2 32e4 57c4 7019 1045 bf3f 4344
00000160: d091 cb44 cdd2 d8bf 09e7 13c2 361a 6744
00000170: 6ec3 b4bf 5d9d 02c2 78fe 48c2 9fec db42
00000180: 92d1 eec2 1733 d642 7b43 a443 4853 f7c3
00000190: ad94 e3c3 e870 3ec3 b543 4444 dbb2 e043
000001a0: a758 a343 f3c4 b03f e90b 3143 2033 cec3
000001b0: e4af f642 22b7 13c2 316e a1c2 cf6f 34c3
000001c0: d8ec 6442 0ded 6342 c3dd c243 44d2 4fc3
000001d0: ea20 2943 c034 34c3 1696 b6c2 cdad 30c3
000001e0: c887 54c1 10a2 b5c2 bac2 0c42 3fe4 0dc3
000001f0: 091f 01c3 96eb edbe b29e 31c2 f123 02c2
00000200: 88cb 9142 7763 ae42 d461 9542 e97a f9c0
00000210: 1c20 f4c2 4e10 90c2 5d6e 9e42 fd84 6543
00000220: e918 ee40 d9a3 7942 92bb 19c2 2c9f 5743
00000230: cf0d 6341 9f97 2e41 e65c b3c0 6536 6cc2
00000240: 216e ecc2 e05a 6ec2 9f15 70c0 adbb 3d41
00000250: b071 c641 6d31 01c2 574c bf41 9861 b642
00000260: 40ae 6342 22da d8c2 906b 64c2 235f 88c1
00000270: a1d8 8cc1 7e59 2b42 a7a7 4643 8586 6849
00000280: cdd2 95c9 2868 7ec9 aedd 3344 7961 c948
00000290: 78c7 7ac9 7f78 8745 73f5 3849 c8c6 cec7
000002a0: 8576 2d49 efb3 0e48 a7b3 8448 2f74 21c8
000002b0: 607e 93c4 8b45 c247 d7ba 15c7 388f d8c4
000002c0: e9b6 1948 5046 bb43 c3f8 39c6 70d6 5344
000002d0: 5187 2846 87b7 9245 8039 3bc6 5617 89c1
000002e0: 5e79 4445 b9e4 3047 2c3c 78c6 b031 e044
000002f0: 2820 1cc7 f64e 51c6 80fe 7445 1e2f a7c4
00000300: 85d9 ffc6 bacf 1e47 dddb 23c7 8e56 9bc7
00000310: 32f6 5447 847a 5244 e516 3646 518b bc47
00000320: 19c3 1b43 d175 2bc6 2122 0546 dfaa c843
00000330: a1c3 0b47 f23c 1dc7 c367 9145 5951 9cc6
00000340: 79a5 3a47 b4af acc6 364f abc2 df4d 2d45
00000350: 5b18 8640 e612 d246 2c88 0547 3949 f6c4
00000360: 3211 88c5 4cf0 12c6 f729 a0c4 8f9b acc5
00000370: 44ff c9c4 03a7 49c4 aed3 1a45 8f21 19c3
00000380: 27fc 8546 f8de 8346 24ee d5c3 3823 bd45
00000390: b8e3 3b46 d40f 7545 0744 1945 b0ab 4c46
000003a0: 2fb6 d3c2 40c6 a8c5 cf1d 2446 10d0 c445
000003b0: a114 31c3 f5b4 0b46 5115 44c3 9dc7 63c5
000003c0: 50f4 6240 d5f2 32c6 ec6c 9645 10a6 1e40
000003d0: 8c22 aac5 3712 4445 8602 cec4 6c7b ea45
000003e0: 35c8 7444 44b8 2ec5 89c4 0046 f295 7445
000003f0: 5188 5945 3fe0 e9c4 da47 b9c3 2cdf 12c5

variational_strategy.base_variational_strategy._variational_distribution.natural_mat f4 [3, 159, 159]
-228395.45 -74876.68 -50826.125 670.0203 -46323.766 -8941.598 -10778.916 -162.63065
-46151.07 -12884.843 -36828.523 10372.206 -12830.142 -16.97462 -14167.877 -8049.8423
-384.64844 -3313.2 -13300.75 -20241.2 -12013.174 -8557.419 90.63157 -2947.008
839.1312 -4854.7837 -10829.865 -2104.985 1908.043 -57.788765 -222.74924 -11.471302
-4664.7188 -6.686132 1484.8751 -94.75996 -3816.64 -3126.0012 -3674.7952 -1127.1198
6.1460123 1312.5818 80.3332 -32.705345 662.56683 -6651.862 -839.41864 -1145.7156
15.600863 -74.789276 -2097.801 4332.9106 -2539.5098 -1692.7596 553.0889 -493.85434
1473.4957 1491.4341 1121.784 300.33585 78.018234 53.23557 -194.42484 -2856.8386
-233.41052 3.2497578 301.3533 14.599144 -4015.3416 -3658.4453 -331.81754 -3262.3086
-149.99896 -375.95636 -806.89496 -25.334848 112.793076 -565.2086 62.3891 -6.822145
-525.5326 5.73029 -280.953 -493.56625 -147.76764 -671.0368 -1542.4589 -261.50467
-526.68866 4.612376 111.55507 123.600044 3.4790359 -156.91718 -27.39739 -491.6936
-356.11484 159.3131 -342.9623 86.45127 -591.341 -170.99324 -529.00073 -11.179832
-423.11633 -183.40427 -250.78447 39.655445 -36.795135 73.297386 217.67279 16.825052
-276.59323 -199.78241 -11.955934 -62.274414 -137.0236 -72.24243 20.077742 -49.64727
-186.66649 167.54948 119.708305 -83.88442 -354.60376 -2.2310026 109.070244 -171.40053
343.69067 -227.8898 -32.046196 -83.91849 162.57054 -263.8828 -97.06783 -320.7078
-14.029044 -145.6195 46.679764 47.016094 5.5070863 -149.40356 -20.413115 -0.6269489
-144.1076 8.062497 -2.4942071 -35.360085 -21.02644 -57.579388 16.45335 -59.951756
-272.70538 -44.68751 -42.708324 -82.34264 -13.950403 3.429797 -186.01292 -74876.68
-87014.94 265.1263 15.746916 -28637.568 -19855.977 -2580.7522 -968.503 -11395.354
-17712.074 -17342.191 8228.575 -4175.207 -386.01462 -14537.961 955.26624 47.806244
-3581.356 -14470.135 2050.5703 -5993.048 689.4528 -7.125822 -138.64514 1788.4644
-133.65298 -4933.2393 -3204.5464 64.42292 31.397562 -583.87524 -6.0187464 523.7483
5.0198 669.54755 -158.87201 505.1746 -384.17407 29.655205 456.86716 11.757662
615.85547 30.778881 10.370844 226.00867 -761.2842 -1.7928998 246.03844 383.7808
-15.424467 -387.97534 2134.053 -4315.9146 -2344.5132 -453.696 187.10172 822.9614
39.059853 1358.5094 -334.20322 649.9001 25.524578 -414.28424 -1948.0763 -1490.9573
-16.915369 150.73521 14.746776 -1687.2942 -2322.547 -61.674908 -1099.7327 -145.20473
74.25997 -109.9787 26.08578 161.90488 -1001.6086 -18.743721 -16.586246 -181.09473
-1.0662365 49.773228 62.266567 -228.72691 -438.02985 -423.9533 -178.91104 14.173791
9.115834 -2.3591833 8.863424 3.981971 7.403088 107.06467 -91.39585 -45.677624
00000000: dd0a 5fc8 573e 92c7 208a 46c7 4d81 2744
00000010: c4f3 34c7 64b6 0bc6 aa6b 28c6 72a1 22c3
00000020: 1247 34c7 5f53 49c6 86dc 0fc7 d310 2246
00000030: 9178 48c6 06cc 87c1 825f 5dc6 bd8e fbc5
00000040: 0053 c0c3 3313 4fc5 00d3 4fc6 6622 9ec6
00000050: b2b4 3bc6 adb5 05c6 5d43 b542 2130 38c5
00000060: 66c8 5144 45b6 97c5 7637 29c6 c38f 03c5
00000070: 6081 ee44 b227 67c2 cebf 5ec3 748a 37c1
00000080: c0c5 91c5 cbf4 d5c0 019c b944 1985 bdc2
00000090: 3d8a 6ec5 0560 43c5 b9ac 65c5 d5e3 8cc4
000000a0: 22ac c440 9e12 a444 99aa a042 46d2 02c2
000000b0: 47a4 2544 e5de cfc5 cbda 51c4 e636 8fc4
000000c0: 239d 7941 1c94 95c2 d11c 03c5 4967 8745
000000d0: 28b8 1ec5 4f98 d3c4 b145 0a44 5bed f6c3
000000e0: dd2f b844 e46d ba44 1739 8c44 fd2a 9643
000000f0: 5609 9c42 39f1 5442 c26c 42c3 6b8d 32c5
00000100: 1869 69c3 08fc 4f40 39ad 9643 1896 6941
00000110: 77f5 7ac5 20a7 64c5 a5e8 a5c3 f0e4 4bc5
00000120: bcff 15c3 6afa bbc3 47b9 49c4 c5ad cac1
00000130: 0e96 e142 5a4d 0dc4 708e 7942 034f dac0
00000140: 1662 03c4 895e b740 fc79 8cc3 7bc8 f6c3
00000150: 84c4 13c3 5bc2 27c4 afce c0c4 99c0 82c3
00000160: 13ac 03c4 9698 9340 321c df42 3933 f742
00000170: 86a8 5e40 ccea 1cc3 db2d dbc1 c8d8 f5c3
00000180: b30e b2c3 2750 1f43 2d7b abc3 0de7 ac42
00000190: d3d5 13c4 45fe 2ac3 0c40 04c4 98e0 32c1
000001a0: e48e d3c3 7e67 37c3 d3c8 7ac3 2d9f 1e42
000001b0: 382e 13c2 4398 9242 3cac 5943 b599 8641
000001c0: ef4b 8ac3 4cc8 47c3 814b 3fc1 0019 79c2
000001d0: 0b06 09c3 207c 90c2 379f a041 ce96 46c2
000001e0: 9faa 3ac3 ab8c 2743 a76a ef42 d3c4 a7c2
000001f0: 484d b1c3 bfc8 0ec0 f723 da42 8966 2bc3
00000200: 68d8 ab43 cae3 63c3 4e2f 00c2 44d6 a7c2
00000210: 0f92 2243 00f1 83c3 bb22 c2c2 995a a0c3
00000220: f776 60c1 989e 11c3 14b8 3a42 7b10 3c42
00000230: 0d3a b040 5067 15c3 0f4e a3c1 b97f 20bf
00000240: 8c1b 10c3 fdff 0041 17a1 1fc0 ba70 0dc2
00000250: 2636 a8c1 4b51 66c2 76a0 8341 99ce 6fc2
00000260: 4a5a 88c3 03c0 32c2 53d5 2ac2 6faf a4c2
00000270: da34 5fc1 cb81 5b40 4f03 3ac3 573e 92c7
00000280: 78f3 a9c7 2b90 8443 5ef3 7b41 23bb dfc6
00000290: f41f 9bc6 094c 21c5 3120 72c4 6a0d 32c6
000002a0: 2660 8ac6 627c 87c6 4d92 0046 a879 82c5
000002b0: df01 c1c3 d827 63c6 0ad1 6e44 9839 3f42
000002c0: b2d5 5fc5 8a18 62c6 2029 0045 6248 bbc5
000002d0: fb5c 2c44 bc06 e4c0 28a5 0ac3 dc8e df44
000002e0: 2aa7 05c3 ea29 9ac5 be48 48c5 89d8 8042
000002f0: 352e fb41 04f8 11c4 9299 c0c0 e4ef 0244
00000300: 34a2 a040 0b63 2744 3cdf 1ec3 5996 fc43
00000310: 4816 c0c3 dc3d ed41 ff6e e443 621f 3c41
00000320: c0f6 1944 263b f641 faee 2541 3802 6243
00000330: 3052 3ec4 be7d e5bf d709 7643 f1e3 bf43
00000340: 9eca 76c1 d8fc c1c3 d960 0545 51df 86c5
00000350: 3688 12c5 17d9 e2c3 0a1a 3b43 88bd 4d44
00000360: 4a3d 1c42 4dd0 a944 031a a7c3 9b79 2244
00000370: 5632 cc41 6224 cfc3 7182 f3c4 a25e bac4
00000380: ad52 87c1 37bc 1643 cbf2 6b41 6ae9 d2c4
00000390: c128 11c5 1bb3 76c2 7277 89c4 6934 11c3
000003a0: 1b85 9442 18f5 dbc2 adaf d041 a6e7 2143
000003b0: f366 7ac4 24f3 95c1 a2b0 84c1 4018 35c3
000003c0: 707a 88bf c917 4742 f710 7942 17ba 64c3
000003d0: d203 dbc3 06fa d3c3 3ae9 32c3 d9c7 6241
000003e0: 75da 1141 dcfc 16c0 96d0 0d41 9dd8 7e40
000003f0: 19e6 ec40 1c21 d642 adca b6c2 e3b5 36c2

mean_module.constant f4 [3, 1]
-0.23083635 -0.4584332 0.38670787
00000000: 5d60 6cbe c2b7 eabe 93fe c53e

covar_module.raw_mixture_weights f4 [3, 4]
-0.015671633 0.19379307 0.91361827 -0.08500598 0.62939525 0.6305275 0.64952123 -0.293644
-0.77483267 -0.80592936 -0.39908266 -0.7758765
00000000: cc61 80bc b171 463e e3e2 693f 9e17 aebd
00000010: 0c20 213f 406a 213f 0647 263f 8258 96be
00000020: 6f5b 46bf 6351 4ebf 9054 ccbe d89f 46bf

covar_module.raw_mixture_means f4 [3, 4, 1, 3]
-3.1301343 -3.436356 -2.70694 -1.0073934 -3.5510645 -4.4495645 -2.7219725 -3.5800855
-4.488073 -2.4300292 -3.2842872 -2.6330385 -0.7515247 -3.408796 -3.3592248 -0.63509935
-3.4090562 -3.3591683 -0.9612311 -3.4083254 -3.3606162 -2.1900792 -3.3959153 -3.6633592
-1.1092645 -2.462062 -3.2446065 -1.1119449 -2.4636197 -3.0609157 -0.03026738 -2.4672065
-2.6637309 -1.1117544 -2.4621856 -3.2651572
00000000: 1f54 48c0 42ed 5bc0 813e 2dc0 44f2 80bf
00000010: a444 63c0 d562 8ec0 cc34 2ec0 1f20 65c0
00000020: 4b9e 8fc0 9985 1bc0 c331 52c0 b483 28c0
00000030: ec63 40bf b729 5ac0 8afd 56c0 df95 22bf
00000040: fa2d 5ac0 9dfc 56c0 3e13 76bf 0122 5ac0
00000050: 5614 57c0 422a 0cc0 ad56 59c0 7a74 6ac0
00000060: 61fc 8dbf 6c92 1dc0 a2a7 4fc0 3654 8ebf
00000070: f2ab 1dc0 0be6 43c0 4cf3 f7bc b6e6 1dc0
00000080: 917a 2ac0 f84d 8ebf 7394 1dc0 56f8 50c0

covar_module.raw_mixture_scales f4 [3, 4, 1, 3]
-2.2635593 -3.1851072 -1.5377979 -0.102823384 -3.3760364 -4.1520376 -1.8485442 -3.40674
-4.1530247 -1.5817034 -2.956109 -1.5397338 -1.8968014 -4.788007 -3.431057 -1.735362
-4.7879615 -3.4308157 -2.6865551 -4.7882986 -3.4311764 0.07908535 -4.8009205 -1.9783077
-0.770043 -3.944087 -3.0229824 -0.7614063 -3.9426053 -2.2795887 0.529331 -3.9382765
-3.325344 -0.7544265 -3.943901 -3.0091624
00000000: 28de 10c0 ccd8 4bc0 90d6 c4bf 1195 d2bd
00000010: fb10 58c0 7edd 84c0 199d ecbf 0708 5ac0
00000020: 94e5 84c0 4275 cabf e430 3dc0 ff15 c5bf
00000030: 63ca f2bf 5a37 99c0 7096 5bc0 5820 debf
00000040: fb36 99c0 7c92 5bc0 85f0 2bc0 be39 99c0
00000050: 6598 5bc0 80f7 a13d 24a1 99c0 3039 fdbf
00000060: 8a21 45bf ec6b 7cc0 8b78 41c0 86eb 42bf
00000070: a553 7cc0 c8e4 11c0 3d82 073f b90c 7cc0
00000080: 70d2 54c0 1822 41bf e068 7cc0 1e96 40c0
