mogp_model_state_psNG_unit.pth (torch, 316158 bytes, 7 tensors)

variational_strategy.lmc_coefficients f4 [3, 3]
00000000: 374a 363e 1aea 083d 7b98 d03b 89b1 2d3d
00000010: fdb5 60be 5632 2fbd 83ba 013c 4e9b 78bc
00000020: 7509 243e
0.17801748 0.03342638 0.0063658333 0.04240564 -0.21944423 -0.042772613 0.007918003 -0.015173746
0.16019233

variational_strategy.base_variational_strategy.inducing_points f4 [3, 159, 3]
00000000: 9bbf ccbe 8a92 73bf 776c a7bd d721 723f
00000010: 2f41 1fbf 9482 3a3e 98aa 7d3f 1019 533f
00000020: 4695 dfbf 0b85 b0bf f216 633d 9247 883f
00000030: 3730 a83c e6cb 16bd 617d e53f 7444 2f3f
00000040: 3138 81bf e530 41bf 7701 79bf 97b1 2e3d
00000050: e161 5d3f befc 803f 24a1 e93f 2bcc 53be
00000060: a083 413f 1701 b4c0 807b 2fbe 32fb 583e
00000070: 3592 7240 110d 0dbe fbd5 423f 5f3e 82c0
00000080: afdf 41bf b0a3 e1be dbe0 7fc0 436f 3bc0
00000090: 031f 5ebf abcf 10bf a675 d4bf 8f6f b53e
000000a0: 86f1 92bd cd6d 31be 447a 1bbf e399 72c0
000000b0: de04 243f 4a93 053e 259a 98bf f4d3 fcbe
000000c0: 723c 4dbe ecba b540 4306 f1bf 6a02 34bf
000000d0: 25e9 98c0 59fc 1f40 b501 ab3f b810 abbe
000000e0: 4cf6 0ec0 d88a 3cbe 4161 993f 76f5 f5bf
000000f0: f407 0b3f e73a 81bf ced9 42bf e1f0 de3f
00000100: d5ef 8c40 a661 9cbd 1e27 f83d 265c a040
00000110: fd55 e53f c41d 1cbf 0203 dfbe 0cf9 2cbd
00000120: bd0a 3e3f 6d7e 9abf 1f3e 6c3f 8300 02bf
00000130: 5bef 3abe 137f 4fc0 b172 8dbd 8cd8 fc3f
00000140: 55d0 efbe 8414 68bf 889f 79bf 133a efbe
00000150: f1c6 42bf 9102 cbbf 3798 52bf d651 8f3e
00000160: 669e b23f 847d df3e f6fb 9c3f 41c1 dd3e
00000170: a8d7 a6bf 68de 51bf 1a18 b13f e740 153f
00000180: 8818 00bf 3947 40bd 8153 c3bd c1a8 333f
00000190: c678 cc3e 4a56 9c40 c31d e0bd bc9e d5be
000001a0: ced6 39bf 5654 d9be 36ed 4640 76bb 34c0
000001b0: 94e6 9dbe 9f83 75be d024 17bf 5932 0c3f
000001c0: 4f6c 753f 1a59 b73a cc93 853e 8cdc 633f
000001d0: 0d1d c6be 83b6 863f 0eab 4cbe 37e4 b6be
000001e0: 56c8 613e 34a5 b5bf c9f9 77bf da2c 71be
000001f0: 119c c83f 2b34 243f 6410 00bf 595e 6640
00000200: 17a9 79c0 98a4 0a3f c379 b3bf b4ec 723f
00000210: 7f3b 663f 6eeb 35c0 38bc 0ebf a9de 73bf
00000220: 4ffb 9b3e 218d 06bf d972 7b3e 1b77 03c0
00000230: 4320 e03e 8c45 e6bd 42ce 8e40 fee6 10bf
00000240: 89c2 8dbd cde9 4dbf af0f 0e3f 80ae 4fbf
00000250: 878b c33f ab5a e9be 6d2f b8bd c798 d03f
00000260: 57e4 84bf 5470 243f af52 36bf 31e5 183f
00000270: d17e 79bf 6723 61bf 3d84 743e e543 733f
00000280: 12ea 6bbe 6716 24c0 8e59 073d c69a fe3e
00000290: 6e13 463f c893 83bf 6b46 36bf a4dc 90bd
000002a0: e45f 633f 2000 35bf 5e35 00bf 42e2 423f
000002b0: 0300 e2bc f8b1 3740 d5d4 c83e ae49 54be
000002c0: 49a6 69bf d019 11bf 851c 00bf 0dcf bebf
000002d0: e95a c63e da86 84bf 79b3 283f 7783 0abf
000002e0: 044c f33f 5f17 0040 e975 adbe 5e4d 063f
000002f0: 594d 9cbc 7b38 00bf f3da 473f 6b7e 643f
00000300: 7ce1 4cbf cf7c 2ebe 9ca0 4b3f 30c1 d3be
00000310: 210c a63f da0b 92bf 1901 88bf 3ec6 dc3e
00000320: ff55 03bf da84 7dbf b5d5 673f f939 893e
00000330: a463 703e 132f c3be 9e16 343e ac6b 413f
00000340: 00f4 a53f 74de e53e 9a30 9dbe 3feb 663d
00000350: 68dd fc3e 2efa 323f 38da 4bbf 0d18 f8bd
00000360: 6e49 e63e a1bb b23f 8dc5 383f 839c 5ebf
00000370: b99c 88bf b991 813f b878 f0be e990 d13e
00000380: 3fe6 c6be 7e43 013f 528a bb3d fbfe 133f
00000390: 592f 41be cec3 f5bd e7d9 1abf d357 033f
000003a0: d50e 4cbf cf8d e93c 8424 76bf 8023 8d3f
000003b0: 87db 5abf 4092 64be 555f 46bf 2d68 b13d
000003c0: d599 2bbf 36fc 85be 5483 62bf 9dd4 6f3d
000003d0: 543b 31bf 38f7 c83d 5904 bfbe 2348 673f
000003e0: 5d27 2abf 7406 d0be 8114 12bf c0fd 69bf
000003f0: 1eac d83e f711 4cbe 1ee4 8a3f d75c c13e
-0.39989933 -0.95145476 -0.08174985 0.94582886 -0.6220884 0.18213874 0.9908843 0.8246012
-1.746743 -1.3790601 0.055441804 1.0646842 0.020530803 -0.036815546 1.7928888 0.68463826
-1.0095273 -0.7546523 -0.9726786 0.04264983 0.86477476 1.0077131 1.8252301 -0.20683353
0.7559147 -5.625133 -0.17136955 0.21189573 3.7901738 -0.13774516 0.7610776 -4.0701137
-0.7573194 -0.44070196 -3.998099 -2.9286659 -0.8676607 -0.56566876 -1.6598403 0.35436675
-0.07174973 -0.17327042 -0.6073344 -3.7906425 0.64069927 0.13044468 -1.1922041 -0.49380457
-0.2004259 5.6790676 -1.8830036 -0.70316184 -4.77846 2.499777 1.3359896 -0.33411193
-2.2337828 -0.1841234 1.1982805 -1.9215534 0.5430901 -1.00961 -0.76113594 1.741726
4.4042764 -0.076358125 0.12116836 5.0112486 1.7916867 -0.6098292 -0.43556982 -0.042229697
0.74235135 -1.2069832 0.9228229 -0.5078203 -0.1825537 -3.242131 -0.06906641 1.9753585
-0.46838632 -0.90656304 -0.9750905 -0.46723995 -0.7608481 -1.5860158 -0.8226351 0.27992123
1.3954589 0.43650448 1.2264392 0.43311504 -1.3034563 -0.8197999 1.383548 0.5830216
-0.5003743 -0.046942923 -0.095374115 0.70179373 0.39935893 4.8855333 -0.109431766 -0.41722667
-0.7259339 -0.42447156 3.1082282 -2.8239417 -0.3083998 -0.2397599 -0.59040546 0.54764324
0.9586839 0.0013988346 0.26089323 0.890084 -0.3869404 1.0524448 -0.19987127 -0.3572099
0.22049078 -1.4191041 -0.96865517 -0.23552266 1.5672628 0.641421 -0.5002501 3.5995085
-3.9009454 0.541574 -1.4021534 0.9489243 0.89934534 -2.8424945 -0.5575595 -0.9526163
0.3046517 -0.52559096 0.2455553 -2.0541446 0.43774614 -0.11243734 4.462678 -0.56602466
-0.0692187 -0.80434877 0.5549268 -0.8112564 1.5276955 -0.45576987 -0.08993421 1.6296624
-1.0382184 0.642339 -0.71219915 0.5972472 -0.9745913 -0.87944645 0.2387857 0.95025474
-0.2303851 -2.5638673 0.03304439 0.49727458 0.773734 -1.0279474 -0.712012 -0.07073334
0.8881819 -0.70703316 -0.5008143 0.7612649 -0.027587896 2.8702374 0.39224878 -0.20731232
-0.91269356 -0.5668001 -0.5004352 -1.4906937 0.38741234 -1.0353653 0.65898854 -0.5410685
1.9007573 2.0014265 -0.3387902 0.524618 -0.019079851 -0.5008618 0.78068465 0.892554
-0.8003156 -0.17039798 0.79541945 -0.41358328 1.2972451 -1.1409867 -1.0625335 0.43119997
-0.51303095 -0.9903084 0.90560466 0.26802042 0.2347551 -0.38121852 0.17586753 0.7555492
1.2965088 0.4489628 -0.30701143 0.056376692 0.4938767 0.69912994 -0.7962985 -0.12113962
0.44977897 1.396351 0.7217644 -0.8695757 -1.0672828 1.0122596 -0.469671 0.4093087
-0.3884754 0.5049361 0.09157242 0.57810944 -0.18865718 -0.120002374 -0.6048874 0.51305884
-0.7971013 0.028510002 -0.9614947 1.1026459 -0.8549122 -0.22321415 -0.77489215 0.08662448
-0.67031604 -0.26168984 -0.8848164 0.058552373 -0.6923115 0.09812778 -0.37308004 0.90344447
-0.66466314 -0.40629923 -0.57062536 -0.91402817 0.42318815 -0.19928728 1.0850866 0.37766144

variational_strategy.base_variational_strategy._variational_distribution.natural_vec f4 [3, 159]
00000000: d07d 67c8 d74f de47 3961 8b46 f5a3 e6c5
00000010: f4b7 0dc6 b8f9 ec47 d43d e7c7 67dd 0246
00000020: 0167 41c6 9430 4647 8ad6 1fc7 df7f 49c5
00000030: ec2e 89c7 7ab2 c947 475c 13c7 7316 eac6
00000040: 56da 26c6 b7a6 6045 d4fa d7c3 5b42 8bc6
00000050: 876f 62c6 f155 7ec1 44f0 9b45 2c16 dcc7
00000060: 2f81 3447 f8f8 2c45 7158 49c7 6f5f 5ec7
00000070: 2add e245 ca4d 0746 e6c1 2bc5 2b1a 37c7
00000080: a31b e7c5 ec3c 05c2 fe1a b2c6 3e8d a2c5
00000090: 53bd 6cc6 3de0 1047 2b3d c845 81eb 5fc5
000000a0: 6a4c 2846 dd49 55c7 8eef f744 978e 2e46
000000b0: 12e0 a245 62c9 1cc6 3d5d c045 8586 8245
000000c0: 95d5 71c6 b38e 4ec6 5a40 77c5 3e6f ec45
000000d0: 416f b9c5 6fac 43c5 5c27 f645 7ee9 8845
000000e0: a52b 2e46 ba37 3a44 7e81 b145 74a1 e0c5
000000f0: 37d4 0846 a6da 5dc6 051d 63c6 06a1 a1c6
00000100: 77c1 42c6 03f3 c8c5 0cf1 21c4 12bb 29c5
00000110: ec52 c844 de8e 3146 0212 0cc6 df32 8d43
00000120: d03a b343 1d5d 4a45 a5a2 6fc5 07c7 1545
00000130: 8f42 4fc5 1f8d e944 c291 1b45 ceb7 37c4
00000140: f989 6ac5 bacc 1742 9a9c c6c4 0d79 4bc4
00000150: f128 7a45 0d2d 8043 4142 6d45 abf5 02c5
00000160: 5afb 8b44 aca4 25c3 29db c543 43d0 14c5
00000170: 3c70 64c2 4c28 0243 680a dac4 c1fd 16c5
00000180: 5d8d 0045 8496 2542 b3d7 d8c2 b160 3b43
00000190: b169 03c5 abac 9f42 0019 b9c3 83da 3344
000001a0: 6463 4244 cfc1 f8c3 dd4f cfc3 05df cac0
000001b0: 2017 8244 5eb6 e9c3 79d8 7fc3 e4ee 8b45
000001c0: c9b6 a245 8984 bb44 a52d 4144 10c6 26c4
000001d0: 1328 5644 0783 42c3 4008 5e44 592a 2144
000001e0: 3b48 0ac5 07b1 e2c3 f1a1 1cc4 f3aa 54c3
000001f0: 296f c344 34b5 98c3 53f0 0b44 a249 3cc5
00000200: 816e 89c3 9137 0144 a50b e644 6193 2743
00000210: 7a6f d642 a8d7 8143 2a03 1844 e592 6944
00000220: 16c1 8743 e87a a341 6471 67c2 6db6 f742
00000230: 6dde a243 2897 0fc2 4213 1244 e936 37c3
00000240: ac95 49c4 175e cac4 6bf3 59c4 d531 1743
00000250: beb1 4ac4 b92b 47c4 65b2 7143 ceb0 c0c3
00000260: 01f8 7cc3 e66f f6c2 e40e f943 eb2a d9c3
00000270: 30b2 22c4 fdc3 ae43 a4f1 4143 5501 9d46
00000280: 0b64 9ac3 5b1c a445 4ab8 c144 e99b 7645
00000290: 94ee d244 dfc4 d7c6 0b97 9d45 29b9 de45
000002a0: 211a b7c1 7804 89c4 df36 4d45 a201 3745
000002b0: 3945 1545 09c1 2944 2da9 aa42 5f42 0a46
000002c0: a97e 60c5 6daa a743 eba9 9dc4 ffd7 13c5
000002d0: af82 b943 ee06 16c6 3762 ecc5 6112 f044
000002e0: 26f9 fe40 dc7a 9ac4 e481 a344 05b0 9842
000002f0: 7d00 be44 da99 cd44 0104 3bc4 ab92 3fc3
00000300: d1bb 92c5 fb89 0e44 f735 6043 c9e0 a244
00000310: 6dad 5344 cbcb a745 bb01 0046 7992 7ac3
00000320: 3da7 d0c5 c7e4 fd44 56d7 bb44 f3e7 b345
00000330: ec22 b4c4 7e88 c4c5 161a 75c6 9417 3445
00000340: 1b95 29c5 89de 8f43 bc23 18c4 1642 9a44
00000350: c335 4145 6849 83c5 1458 2045 a779 9a44
00000360: 7fc1 9a44 5d78 c343 eacd cd42 c9b1 1945
00000370: 7419 1f45 9132 2dc6 a1d8 ee43 dd0f 4044
00000380: 671f 8a43 36b3 01c2 530d ba44 1992 9944
00000390: 6c71 1dc4 b16a c6c3 0bd5 e143 d593 a043
000003a0: f7c8 d5c5 11f8 5a44 5cca 97c4 55bc a7c3
000003b0: dd20 3942 a670 1e45 b595 0c44 fa81 e543
000003c0: 9e3f c543 b45a 4845 23d2 05c2 8e6d 4644
000003d0: 765e cd43 7ab0 8d45 616f 85c5 d130 2945
000003e0: 821c 0ec5 c1ac 1e43 0d45 fac4 8276 ce44
000003f0: 7c34 bd43 89b0 05c5 0ca2 9243 e245 63c3
-237047.25 113823.68 17840.611 -7380.4946 -9069.988 121331.44 -118395.66 8375.351
-12377.751 50736.58 -40918.54 -3223.992 -70237.84 103268.95 -37724.277 -29963.225
-10678.584 3594.4197 -431.9596 -17825.178 -14491.882 -15.895982 4990.033 -112684.34
46209.184 2767.5605 -51544.44 -56927.434 7259.6455 8659.447 -2748.1187 -46874.168
-7395.4546 -33.309494 -22797.496 -5201.6553 -15151.331 37088.24 6407.646 -3582.719
10771.104 -54601.863 1983.4861 11171.647 5212.009 -10034.346 6155.655 4176.815
-15477.3955 -13219.675 -3956.022 7565.9053 -5933.9067 -3130.777 7876.92 4381.1865
11146.911 744.8707 5680.1865 -7188.1816 8757.054 -14198.662 -14535.255 -20688.512
-12464.366 -6430.3765 -647.76636 -2715.692 1602.5913 11363.717 -8964.502 282.39743
358.45947 3237.8196 -3834.1653 2396.4392 -3316.16 1868.41 2489.1099 -734.87195
-3752.6233 37.94993 -1588.8938 -813.8914 4002.5588 256.35196 3796.1409 -2095.3542
1119.8547 -165.64325 395.7122 -2381.0164 -57.109604 130.15741 -1744.3252 -2415.8596
2056.8352 41.396988 -108.42129 187.3777 -2102.6057 79.83724 -370.1953 719.41425
777.553 -497.51413 -414.62393 -6.339724 1040.7227 -467.42474 -255.8456 4477.8613
5206.848 1500.1417 772.7132 -667.0947 856.62616 -194.51183 888.1289 644.6617
-2212.5144 -453.38303 -626.53033 -212.66777 1563.4738 -305.41565 559.75507 -3012.602
-274.8633 516.8682 1840.3639 167.5757 107.21773 259.6848 608.04944 934.2952
271.50848 20.435013 -57.860733 123.8563 325.7377 -35.897614 584.3009 -183.2145
-806.3386 -1618.9403 -871.8034 151.19466 -810.7772 -796.68317 241.69685 -385.3813
-252.96877 -123.21855 498.11633 -434.3353 -650.7842 349.53116 193.94391 20096.666
-308.7816 5251.5444 1549.759 3945.7444 1687.4556 -27618.436 5042.8804 7127.145
-22.887758 -1096.1396 3283.4294 2928.102 2388.3264 679.0162 85.33042 8848.593
-3591.9163 335.33145 -1261.3099 -2365.4998 371.02097 -9601.732 -7564.277 1920.5743
7.9679136 -1235.8394 1308.0591 76.34379 1520.0153 1644.8079 -748.06256 -191.57292
-4695.477 570.15594 224.2108 1303.0245 846.7098 5369.474 8192.433 -250.57216
-6676.905 2031.1493 1502.7292 5756.9937 -1441.0913 -6289.0615 -15686.521 2881.4736
-2713.319 287.73856 -608.55835 1234.0652 3091.36 -4201.176 2565.505 1235.8016
1238.0468 390.94034 102.902176 2459.1116 2545.5908 -11084.642 477.6924 768.24786
276.24533 -32.42501 1488.4164 1228.5656 -629.7722 -396.83353 451.6644 321.15494
-6841.1206 875.87604 -1214.3237 -335.47134 46.282093 2535.0405 562.3392 459.01544
394.497 3205.669 -33.45521 793.7118 410.73798 4534.0596 -4269.9224 2707.051
-2273.7817 158.67482 -2002.1578 1651.7034 378.41003 -2139.0334 293.266 -227.27298

variational_strategy.base_variational_strategy._variational_distribution.natural_mat f4 [3, 159, 159]
00000000: 9601 c1c6 90bf 96bf 6d07 643b a381 88c2
00000010: b637 20c5 9b2f 02c2 4b25 30c5 00f7 2dc0
00000020: e23e bd40 d152 c1c4 63ea 8ec1 f8d5 7dc3
00000030: 0d3c 06c5 bb81 64c3 2da9 92c4 8f0f 58c5
00000040: 34ca 88c4 b311 dbc2 c01c 2ec1 5745 e7c4
00000050: 101f 9cc3 537f 14bd f6ad 9043 5f6a b4c5
00000060: d5ae dec2 cf80 4842 6aa1 a2c5 f9b1 24c4
00000070: f7a5 9543 c985 f3c3 7bb1 6c40 a7a1 f5c4
00000080: cae1 c0c4 c055 293e acd4 0ac5 3bf3 fac3
00000090: 863c 87c4 503d 6e42 9fb7 3543 8d95 5841
000000a0: 37d3 be43 8752 adc5 25bb 3243 2718 9241
000000b0: 613d 78c2 9713 2242 2187 7fc3 7621 fb43
000000c0: 3f06 d3c4 4cd1 f2c3 e0c6 5dc3 ad1e 1ec2
000000d0: 9695 19c3 6c59 f1bd cd85 2844 993d 9cc2
000000e0: ddc2 87c1 508d 53c1 6d2f c141 5810 05c4
000000f0: 8598 d742 0e04 9ec4 413d b2c4 1dac fdc4
00000100: 5154 cdc3 03f2 19c4 cf1f 66c2 7b61 99c1
00000110: ed13 5ac3 d890 c83f be35 84c4 3eab d8c0
00000120: 4e54 c741 cef3 1a43 492b 9dc3 2596 0842
00000130: 70e6 88c3 ff3f 3040 a957 9842 e9b4 0ac3
00000140: d781 18c3 14dd ed40 4a57 0cc3 e74a e1c2
00000150: e6bc 0242 0d63 b941 f98a 373d 066e 20c3
00000160: 4ffe 92c0 e1f9 1cc2 c4f2 e5c1 6b3e 1cc3
00000170: 2865 6742 d5c1 53c1 a0f5 6cc3 a1d0 44c3
00000180: 93f9 cb42 07db 83c0 1df7 6fc0 261a 8f40
00000190: 9cf1 05c2 b02e d1c0 49ae 35c2 2e0a 4bc1
000001a0: 0c39 b2c1 0a2f 18c1 a57a f8c1 1883 10c0
000001b0: 09b6 41c0 7598 24c0 2a84 ba40 08f9 cf3d
000001c0: df65 06c0 b227 29c0 ced4 b33f 5bae 86c2
000001d0: 855d 2640 4f97 28c2 ae9f 553f 2956 8b41
000001e0: 58b8 1ec3 1c7d b3c2 25fa 97c2 2525 7dc1
000001f0: 68f8 1340 0431 bcc1 6056 83c1 b627 91c2
00000200: 2177 66c2 83ef b1c0 8f99 3ac0 1a19 4d40
00000210: 1e6e 3cbe baa2 51c1 542b 6abe 52f5 a73c
00000220: 3709 ebc0 ceed 94bf ad27 52bf 57fc 3fc0
00000230: 9d69 ff3d 3cb9 0fc0 3af1 a83e edee 11c1
00000240: d288 e3c1 a62d d5c2 4dd2 6440 289c c0bf
00000250: 84e8 8ac1 eea2 f1c1 8558 7abf de3d 2ac1
00000260: 9fd6 f8c1 2934 7240 72cc 113f ac59 19c1
00000270: 7e6f a1c2 85f4 0ebe 5238 f8bb 90bf 96bf
00000280: 743a 7dc6 081e f5c4 672e ee37 7194 a9c2
00000290: 4d44 e4c5 f0c2 d1bc f36d 60c4 4af2 3344
000002a0: 93b5 ffc3 a12e 0245 38d2 b7bd 2b10 d7bd
000002b0: b8d3 84c4 adfb 85be 4485 d043 f076 2dc1
000002c0: 883c a2bf e2ff d342 3198 47c2 f430 e444
000002d0: ddd0 0040 32ed 64c2 9e7d 8b41 a7bb 8dc5
000002e0: 8f8c cf40 2241 44c3 0a71 0f40 805e b53f
000002f0: 0d4c 5c43 b239 eb43 f014 4540 fde1 8241
00000300: 7a90 5040 25c0 46c3 3f11 81c1 8af2 1443
00000310: f269 0fc5 6765 52c2 73de 8244 0152 c3c3
00000320: 9ffb ef41 5503 a540 c970 6743 de24 fbc3
00000330: 1e8b e63e 3763 b8c3 450d 8d42 54ef 4ac2
00000340: 60c9 fc3d 91fe ed42 b9b4 66c4 6a30 29c0
00000350: b1b5 c743 6884 abc1 8f61 8140 f710 b7c4
00000360: 3532 f3c2 8026 2bc3 9104 5cc1 1dad dec3
00000370: 2f41 37c0 fc8a 70c0 7e25 16c1 90f6 9c40
00000380: 362e 1e41 fae1 d5be 23ab 913f a4bf 68c3
00000390: 7034 d8c4 bc82 64c1 9e81 40c3 d593 2743
000003a0: d669 38c0 ca4e ce40 b298 56c3 dee0 a5c1
000003b0: 254b 4dc3 2f71 153d f6e4 da40 a454 843f
000003c0: 3203 0d42 bacd 7041 9b07 9b40 7fa6 32c3
000003d0: 51f3 a7c1 b880 46c4 f094 90c1 af61 4bc3
000003e0: 4243 09bf 8a44 69c1 7cca 9740 6b17 1341
000003f0: cbcb b240 6d31 273f 5099 53c0 2d43 793f
-24704.793 -1.177721 0.0034794465 -68.2532 -2563.482 -32.54649 -2818.3308 -2.7182007
5.913926 -1546.588 -17.864447 -253.83582 -2147.7532 -228.50676 -1173.2867 -3456.9724
-1094.3188 -109.53457 -10.882019 -1850.1669 -312.24268 -0.03625424 289.35907 -5773.2964
-111.34147 50.12579 -5204.177 -658.7808 299.2966 -487.0452 3.6983325 -1965.0516
-1543.0559 0.16536617 -2221.292 -501.90024 -1081.8914 59.559875 181.71727 13.536511
381.65012 -5546.316 178.73103 18.261793 -62.05994 40.51913 -255.52785 502.2614
-1688.1952 -485.63513 -221.77686 -39.529957 -153.58432 -0.11784634 674.09064 -78.12031
-16.970148 -13.222 24.148157 -532.2554 107.79789 -1264.1267 -1425.9142 -2029.3785
-410.65872 -615.78143 -57.531063 -19.172598 -218.07784 1.5669203 -1057.6794 -6.7709036
24.916164 154.95236 -314.33817 34.146626 -273.8003 2.753906 76.17121 -138.70668
-152.50719 7.433237 -140.34097 -112.64629 32.68447 23.173365 0.04481027 -160.42978
-4.5935435 -39.244022 -28.743538 -156.24382 57.848785 -13.234822 -236.95947 -196.81496
101.98745 -4.1204867 -3.7494576 4.471942 -33.485947 -6.536949 -45.4202 -12.689985
-22.277855 -9.511484 -31.059885 -2.2580013 -3.0267355 -2.5718052 5.8286333 0.10154921
-2.0999677 -2.6430478 1.4049318 -67.34054 2.599458 -42.147762 0.83446777 17.41707
-158.7201 -89.744354 -75.98856 -15.8215685 2.3120365 -23.523933 -16.417175 -72.57756
-57.616337 -5.5604873 -2.9156225 3.204657 -0.18401381 -13.102228 -0.22868091 0.02050272
-7.344875 -1.1635072 -0.8209179 -2.9997766 0.12471316 -2.2456808 0.3299654 -9.1208315
-28.441807 -106.58916 3.5753357 -1.5047655 -17.363533 -30.204556 -0.9779132 -10.640104
-31.104795 3.7844336 0.56952584 -9.584393 -80.71776 -0.13960464 -0.0075750733 -1.177721
-16206.613 -1960.9385 2.8393419e-05 -84.789925 -7304.5376 -0.025605649 -897.71796 719.78577
-511.41855 2082.9143 -0.08975643 -0.10501131 -1062.6162 -0.26168576 417.04114 -10.841537
-1.2674723 105.99977 -49.898624 1825.5298 2.012748 -57.231636 17.436337 -4535.4565
6.485908 -196.25443 2.2412744 1.4169464 220.29707 470.45074 3.079403 16.360346
3.2588181 -198.75056 -16.13342 148.94742 -2294.6216 -52.599026 1046.9515 -390.64066
29.997862 5.1566567 231.44057 -502.28802 0.45028013 -368.77512 70.52592 -50.73372
0.12343097 118.9972 -922.8238 -2.64358 399.41946 -21.439651 4.043159 -1464.5302
-121.59806 -171.15039 -13.751115 -445.35245 -2.8633535 -3.758483 -9.384153 4.905098
9.886282 -0.4177397 1.1380352 -232.7486 -1729.6387 -14.281918 -192.50632 167.57747
-2.8814597 6.447118 -214.59647 -20.734798 -205.29353 0.036484893 6.8404493 1.033833
35.25312 15.050226 4.8446784 -178.65038 -20.993807 -794.0112 -18.072723 -203.38158
-0.5361825 -14.579233 4.7434673 9.193217 5.587377 0.6530979 -3.3062325 0.9736813

mean_module.constant f4 [3, 1]
00000000: f0fe 11bf dace 1b40 c0d8 c9be
-0.5702963 2.4345002 -0.3942318

covar_module.raw_outputscale f4 [3]
00000000: f4ab 4940 af8b c63f e363 2e3f
3.1511202 1.5511378 0.68121165

covar_module.base_kernel.raw_lengthscale f4 [3, 1, 3]
00000000: 3338 b8bf f2a6 6e40 4cba 333f 92d9 e9bf
00000010: a82b 0640 cc38 fa3f 2753 a3bf 8579 543f
00000020: c7d6 0340
-1.4392151 3.7289395 0.7020614 -1.8269522 2.0964146 1.9548583 -1.2759751 0.82997924
2.059984
