mogp_model_state_spNG.pth (torch, 536446 bytes, 7 tensors)

variational_strategy.lmc_coefficients f4 [5, 5]
00000000: ee32 cd3c 6ec0 d43c ff71 fdbc b3cb 03bb
00000010: 1c37 9eba cc89 6a3d b84a 5a3d a0d9 843d
00000020: f859 23bd 3c55 2dbd fd6b 933c 9156 82bc
00000030: 28b9 9cbb f8ad 2d3c 19f6 3dbc 06c3 543e
00000040: 4608 543e fca0 523e 7f34 6d3e 70c8 6c3e
00000050: 691e 80be 05ac 80be 8999 81be 7995 5bbe
00000060: 5033 5cbe
0.0250487 0.025970664 -0.030938147 -0.0020110428 -0.0012070867 0.05726032 0.053293914 0.06486821
-0.039880723 -0.042317614 0.017995829 -0.015910419 -0.0047828145 0.010600559 -0.011594319 0.2077752
0.20706281 0.20569223 0.23164557 0.23123336 -0.250232 -0.2513124 -0.2531245 -0.21443738
-0.21503949

variational_strategy.base_variational_strategy.inducing_points f4 [5, 160, 5]
00000000: a1f9 d2bf da88 393e 242c 5e40 fa51 41c0
00000010: c2c5 8c3f 6800 adc0 ff3f 9ebe 2583 0fbd
00000020: abd0 83c0 baed 5340 0c2d c1bf 69dd 303e
00000030: c508 ab3f 17b5 40bf f982 b73f f5b3 0b40
00000040: 0c6a af3f 9b14 b2bd 7668 9d3f 178f aabf
00000050: c226 ae3f 6882 bbbf 1b1f fd3f fbdd 193f
00000060: 4e48 1f3f 5e7e f33f 3820 1e3f 52e9 e13e
00000070: ff95 86be c5eb 8b3f 05f7 c1bf c9ec 2240
00000080: ed8b aebf f470 633f 3324 de3f f355 8dbf
00000090: 8ad2 843e 5ae6 fc3e 315a 97bf e3ad ff3d
000000a0: ab77 9540 d527 5640 cf77 90c0 eab1 8440
000000b0: 0bb3 4b40 98b7 b13f e7d1 7fc0 d096 15bd
000000c0: 79b5 5dc0 1121 11bd 7f3a fb3b f1f7 233f
000000d0: 3acc b1be e6d4 9ebf a6e0 62bf f22e 0bc0
000000e0: e81b 0cbe 40ca c0bf 4e8a ac3f 2039 a53f
000000f0: b897 a4bf 9e8c c1bf 0be6 873f 9d2c 2140
00000100: 5918 583e 3be0 853f aa98 03c0 18df 9fbf
00000110: d97e fa3e 1de1 90bf 5550 4f40 cc0a 99bf
00000120: 1d92 d5bf 3cf8 a93f 526a 13c0 7118 b83f
00000130: 4576 b8bf 2baf 09bf 6897 4c3f 2371 3dbf
00000140: fd9f 6b40 c440 d8be 6129 1ac0 dbe1 fdbf
00000150: 578a 983f 454b 9940 1783 1440 ea2d b63f
00000160: 0379 97be 3dbd 62bf 8f12 293f 10f4 0bbf
00000170: 16ac 89c0 da2d d4be 4a96 09c0 a3f0 81bf
00000180: 2e3e 0f40 8b78 0240 7e4f 82c0 d252 bc3f
00000190: 25ab a8be e5c8 2f3f a31b b8bf 1b19 903e
000001a0: a95f 023f 8bf2 0d3f 9f37 ab3f 45d6 d43f
000001b0: 2579 81bf f35b fbbf 79cc 463f e5bf b5bf
000001c0: 9b54 0940 9346 1040 f164 2a40 f414 9540
000001d0: a9f1 a9be 7e12 afbf 4da7 de40 dd17 0ebf
000001e0: ddc5 1bbf 30ff 71bf c810 7dbf 0001 973f
000001f0: 41ce a8bf 3fae 6bbf 8011 b43e 5169 cd3f
00000200: 8922 5940 4346 8840 c613 313f 14e5 b4bf
00000210: caf1 adbe dee2 be3f f9ed 8fbf c115 a63f
00000220: ebbc cb3f c3d7 f63f ae85 cd3f 76b2 dd3f
00000230: 017e 66bf 1456 efbe 3ef9 6ac0 79c2 0340
00000240: c9b7 19c0 ade1 a4bd 93e2 3bbf 270f 6cbf
00000250: d892 613e 139d 8a3f 8729 133f 41f9 71bf
00000260: 0ce8 88be 611c 883e dc1b bcbd 9036 8fbf
00000270: 429b c3be 3d2d 06c0 a2a1 a5be 5643 edbe
00000280: 0723 833f 9623 cfbf 8520 b3bf e313 0cbf
00000290: ef3c 873e 0add 4540 515c 4040 e3f6 27c0
000002a0: 6f30 93bf 0952 74c0 341e 253f e446 aebf
000002b0: 3826 de3e 0427 10c0 819e 8cbf 839d 0c40
000002c0: d858 e0bf 9b55 d13e fa53 56bf 7fc8 723f
000002d0: 4306 fcbe d470 d2bf 56eb 9ebf e37d 86be
000002e0: ba43 2b3f c468 c2bd 8f8b 6f3f 9236 303e
000002f0: eca1 d5bf 4b06 313f b2fa 8dbf 64e4 863f
00000300: f404 efbf 5eca 2dbf 7ac2 dd3f 2dd3 6cbf
00000310: 0922 14bf 4d4f 2640 1354 3540 47fe f73f
00000320: a438 b5bf e5fe a93e 17f0 a73e a22e 0ec0
00000330: e6ae 66bf 7fa8 b5be b99d 19bf abd3 32be
00000340: 0933 8f3f 7a5c 113f 19d2 a93f 4477 ff3e
00000350: e1cb b5bf c91d 113e 2fb1 04bf 592b 983c
00000360: 733d 863f 1bca 58bf 533d 35bf 6ca0 833f
00000370: 2096 833f 2892 c03f 7a32 36bf e5f7 193f
00000380: a395 983e 1977 9d3f 03d3 a73f f9d6 f7bf
00000390: 5a34 5cc0 ca9b d8bf cede 613f e37a 9dbf
000003a0: ee19 ef3f 84e0 bb3e c00f bcbf 9d12 8bbf
000003b0: f10f 6d3e 47d8 ea3f 6f2b 3cbf c23a 22c0
000003c0: 9e55 55bf 076f c2be 2f0d c53f 8d70 5640
000003d0: ecc8 4c40 58f9 bfbe bb64 1d3f fb1c 1840
000003e0: 539d 0c40 2377 0040 4c9a 87be b293 763f
000003f0: 2705 86bf a96d b03f 7109 99bf 4d40 9ebe
-1.6482431 0.18118611 3.4714441 -3.0206285 1.0997851 -5.4062996 -0.309082 -0.03503718
-4.119222 3.3113847 -1.5091872 0.17271961 1.3362051 -0.7527632 1.4336845 2.1828587
1.3704238 -0.086953364 1.2297504 -1.3324918 1.3605578 -1.4649172 1.9775118 0.6010434
0.62219703 1.9022939 0.6176791 0.44123322 -0.26286313 1.0931326 -1.5153509 2.5457022
-1.3636452 0.8884423 1.7354797 -1.1041855 0.2594188 0.49394494 -1.1824399 0.12484338
4.670858 3.3461812 -4.514625 4.146718 3.182803 1.3884153 -3.9971864 -0.03652078
-3.4642012 -0.035431925 0.0076668854 0.64050204 -0.34726125 -1.2408721 -0.88624036 -2.1747403
-0.1368252 -1.5061722 1.3479707 1.2908058 -1.2858801 -1.5121038 1.0617079 2.518348
0.21103038 1.0459055 -2.0561929 -1.2489958 0.48924902 -1.1318699 3.239278 -1.195642
-1.6685215 1.327888 -2.3033643 1.4382459 -1.4411093 -0.5378291 0.7991853 -0.7400076
3.68164 -0.42236912 -2.4087756 -1.9834551 1.1917218 4.790438 2.320501 1.4232762
-0.29584512 -0.88570005 0.66043943 -0.54669285 -4.3022566 -0.41441232 -2.149798 -1.0151561
2.2381701 2.0386074 -4.0722036 1.4712775 -0.32943073 0.68665916 -1.4383434 0.28144154
0.50927216 0.55448216 1.3376349 1.662789 -1.0115095 -1.9637436 0.7765575 -1.4199187
2.145789 2.2543075 2.662411 4.6588078 -0.33192185 -1.3677518 6.9579225 -0.5550516
-0.6084879 -0.9453001 -0.9885373 1.179718 -1.3187944 -0.92062753 0.351696 1.6047765
3.3927329 4.258577 0.69170797 -1.4132409 -0.33973533 1.4912984 -1.1244498 1.2975389
1.5917028 1.9284595 1.6056421 1.7320087 -0.90036017 -0.4674536 -3.6714625 2.0587447
-2.4018424 -0.08050857 -0.733926 -0.9221062 0.22028673 1.0829185 0.5748524 -0.94520956
-0.26739538 0.2658415 -0.09185001 -1.1188526 -0.3820439 -2.0965111 -0.3234988 -0.46340436
1.0245064 -1.6182735 -1.3994299 -0.54717845 0.26413676 3.0916162 3.0056345 -2.6244438
-1.1499156 -3.817507 0.6449921 -1.3615384 0.43388534 -2.2523813 -1.0985872 2.1971138
-1.7527113 0.40885624 -0.8372189 0.9483718 -0.49223527 -1.6440682 -1.2415569 -0.2626792
0.6690022 -0.09492639 0.93572325 0.17208317 -1.669004 0.6915023 -1.1092131 1.0538449
-1.8673387 -0.6788691 1.7324975 -0.9250973 -0.57864434 2.5985901 2.8332565 1.9374474
-1.415791 0.33202282 0.32800362 -2.2215962 -0.90110624 -0.35480115 -0.6000629 -0.17463557
1.118745 0.56781733 1.3267242 0.4989568 -1.4202844 0.14171518 -0.5183286 0.018575357
1.0487503 -0.8468339 -0.707967 1.0283332 1.028019 1.5044603 -0.7117077 0.6014388
0.29801664 1.2301971 1.3111271 -1.936248 -3.4406953 -1.6922543 0.882306 -1.2303127
1.8679788 0.3669473 -1.4692307 -1.0865055 0.23150612 1.8347253 -0.73503774 -2.5348363
-0.83333766 -0.37975332 1.5394648 3.3506196 3.1997633 -0.37494922 0.6148183 2.3767688
2.1971023 2.0072715 -0.26484907 0.96319115 -1.0470322 1.3783466 -1.1956006 -0.30908433

variational_strategy.base_variational_strategy._variational_distribution.natural_vec f4 [5, 160]
00000000: b2f9 f543 2709 3143 90a1 9644 9c49 4c44
00000010: 541e a743 db4e 2f43 5c57 4043 9f21 3b44
00000020: 47ce 8fc0 fe75 9142 fdd2 8243 b937 e843
00000030: 399a 3643 e560 a243 a138 1142 73a2 3643
00000040: 917a 8341 3589 e2c2 6faa 8a42 c0e2 f7c1
00000050: 6b05 3943 dbaf fc41 c776 e740 81f9 fcc0
00000060: 86b3 2f43 0446 d040 dac5 19c2 f319 5142
00000070: 4280 e040 52b4 4442 7394 0a42 bcb2 03c2
00000080: 830f 0642 98de 87c0 0838 39c1 912e 0342
00000090: 9189 54c1 7e32 e4c1 402c 13c2 ed95 1742
000000a0: 0826 3cc1 066f 2642 1e4d 95c1 f74e a141
000000b0: e3c2 8541 084e dec1 78f9 be41 03ea 0742
000000c0: 01ba 33c0 0dd2 c941 2ed6 dd42 c5e5 263f
000000d0: 8665 2f41 6097 0e41 6e91 7541 5c74 b93e
000000e0: 2c91 a941 3815 fb41 c21b 0741 5b23 4541
000000f0: c3cf eabf 8e55 1ec1 45d5 1140 8073 9841
00000100: ff65 0d41 30dc 7940 028e 22bf 14df 06c1
00000110: 15c4 a13f ae7b b540 049d 2b40 96b8 413f
00000120: 61eb 1941 400e e940 d55a 3840 932d a43f
00000130: 968d 1841 7db3 2b40 7b87 3f40 8aca adbf
00000140: 0eb5 febf b551 a640 6aa3 aa40 a863 8741
00000150: 96f7 9240 2e47 1b40 b0e9 50c0 7b32 10c0
00000160: 9f22 8640 3937 643f bd6f 8541 f4dc 1740
00000170: bdc5 ba3f 81f3 72c0 af42 8541 75d8 ae3d
00000180: d898 ebbf d878 42c1 1046 0740 2920 4cc0
00000190: 564c bb40 ba5f 2141 ad9e 5441 38a2 98bf
000001a0: a2a0 0641 ceac 2b40 8165 4740 0ca7 a240
000001b0: 58df 5941 e59d 6d40 5a66 0041 910e b440
000001c0: fb69 1c40 ff70 5e40 898d b3bf 75f8 1c3f
000001d0: 2453 0340 a677 8b3f 6739 8940 84d5 0c3f
000001e0: d2fb ae3f e65f 1640 95e4 c240 95f2 3c40
000001f0: 5cee fbbd 5530 543f f4f7 383f 0284 31c0
00000200: 12cd a640 0ff2 1140 5e27 823d bc32 8d40
00000210: 166f f440 b197 bcbf 8c27 6640 6472 9bbd
00000220: 2a1d 99bc 6702 d73f c2e7 1440 bd03 39c0
00000230: 2a7e ecbe 27ad 7f40 0c24 a540 d7b5 2140
00000240: 4a72 3a3f 6aba d93f ce2e 1f40 f793 f53f
00000250: 404a 2640 2670 3b40 d864 cdbf d139 a840
00000260: 5dff 4c40 f66b b53f a61d 6840 b6ab 5940
00000270: 1ac5 ee3d 8786 6b3f e684 08c1 92f5 d4bf
00000280: 40a9 2e45 6a45 95c4 29ff bbc6 b65b 88c4
00000290: de48 4045 7932 bd44 9763 0845 8463 0ac6
000002a0: ac1e 2746 ba73 b944 a5ab 79c5 7609 27c4
000002b0: 91de 55c1 a3c0 04c5 1409 7145 a997 bb44
000002c0: e1c5 8b44 9c9b b2c5 ba9f 18c5 20dd fe44
000002d0: fa7f 3345 67c5 e745 aa8f 6c42 4785 07c5
000002e0: d277 bac3 5b58 9b43 8ed0 8645 b4e4 41c4
000002f0: 7e4d 1cc5 a349 5ec4 ecb5 3c44 f921 e143
00000300: 35b3 8145 12bd 5ec5 ad70 d944 9919 dfc5
00000310: e2d1 ef43 3034 bbc5 4f1a c9c4 e685 cfc4
00000320: b631 74c4 cd6d 64c5 af6b bc42 bd4a 6e43
00000330: f319 06c4 e330 be44 7814 30c5 ddb8 fc43
00000340: de97 4fc4 e019 2c44 bf0f 5f42 345d 1544
00000350: 7f10 2fc4 37d0 bd44 f189 bb43 1066 2643
00000360: 7662 9843 1faa 0645 d525 c7c3 d0e1 05c4
00000370: de45 a143 6386 91c4 6650 4345 c231 a2c2
00000380: 4c3e 9ec2 ee72 c2c3 ff0a 16c5 375c 34c3
00000390: 2d2a 08c4 5b51 8f42 4c98 2142 1596 a5c1
000003a0: 11b6 6744 6bb8 2bc2 ccab 1bc4 4279 6644
000003b0: 5339 97c2 844d 20c2 b443 de42 11d8 e044
000003c0: 9082 c6c2 a29f aa42 0ddd 7ec3 5733 cfc3
000003d0: be3a ef41 f100 bcc2 f032 1b43 0c6a 4442
000003e0: defd f641 b150 a742 5740 9f42 cdf6 19c4
000003f0: 2557 64c3 e7f3 9943 0788 99c3 090d 8bc3
491.95074 177.03575 1205.0488 817.15015 334.23694 175.30803 192.34125 748.5253
-4.4939303 72.73045 261.64835 464.43533 182.60243 324.757 36.3053 182.63457
16.434847 -113.26798 69.33288 -30.985718 185.02116 31.585867 7.233249 -7.905457
175.70126 6.508547 -38.443214 52.27534 7.0156565 49.176094 34.64497 -32.924545
33.51515 -4.245922 -11.5761795 32.795475 -13.283586 -28.524654 -36.793213 37.89641
-11.759285 41.60842 -18.662655 20.163557 16.72016 -27.788101 23.87181 33.978527
-2.8082278 25.227564 110.91832 0.6519435 10.962286 8.911957 15.348005 0.36221588
21.195885 31.38536 8.444277 12.321132 -1.8344654 -9.895887 2.278642 19.056396
8.837401 3.9040642 -0.63497937 -8.429462 1.2637964 5.6713476 2.6814585 0.7567228
9.619966 7.2829895 2.880544 1.2826408 9.534567 2.68283 2.992644 -1.3577435
-1.9899004 5.197474 5.332448 16.92366 4.592723 2.4262195 -3.2642632 -2.253081
4.191726 0.89146763 16.67956 2.372861 1.4591595 -3.7961123 16.65756 0.0853738
-1.8406019 -12.154503 2.1136513 -3.189463 5.8530684 10.085871 13.288739 -1.1924505
8.414217 2.6824222 3.1155703 5.0828915 13.617027 3.712762 8.024988 5.626778
2.4439685 3.4756467 -1.4027568 0.61316615 2.0519495 1.0895889 4.288257 0.550133
1.36706 2.3496032 6.090403 2.952306 -0.12301323 0.8288625 0.72253346 -2.773682
5.212533 2.280399 0.06355165 4.412443 7.6385603 -1.4733793 3.5961637 -0.07590178
-0.018690664 1.6797608 2.3266454 -2.8908532 -0.46190006 3.9949434 5.1606503 2.5267236
0.7283064 1.7010014 2.4872317 1.918578 2.5982819 2.92872 -1.60464 5.2570577
3.2030861 1.4173572 3.6268096 3.4011054 0.11658688 0.9200215 -8.532446 -1.6637442
2794.5781 -1194.1692 -24063.58 -1090.866 3076.5542 1513.5773 2182.2244 -8856.879
10695.668 1483.6165 -3994.7278 -668.1478 -13.3668375 -2124.0398 3856.5674 1500.7394
1118.1837 -5715.451 -2441.983 2038.9102 2871.9985 7416.6753 59.140297 -2168.3298
-372.9361 310.69028 4314.0693 -775.5735 -2500.8433 -889.1506 754.8425 450.2654
4150.401 -3563.817 1739.5211 -7139.1997 479.6397 -5990.5234 -1608.8221 -1660.1843
-976.77673 -3654.8625 94.21032 238.29195 -536.40546 1521.5277 -2817.2793 505.44424
-830.3729 688.4043 55.765377 597.4563 -700.25775 1518.5067 375.07767 166.39868
304.76923 2154.6326 -398.29556 -535.5283 322.54584 -1164.1996 3125.025 -81.09718
-79.12167 -388.8979 -2400.6873 -180.36021 -544.659 71.6589 40.398727 -20.698282
926.8448 -42.930096 -622.6843 921.89465 -75.61196 -40.0757 111.13223 1798.7521
-99.255005 85.31178 -254.86348 -414.4011 29.903683 -94.00184 155.19897 49.10356
30.873959 83.6576 79.62566 -615.85626 -228.34041 307.9055 -307.0627 -278.10184

variational_strategy.base_variational_strategy._variational_distribution.natural_mat f4 [5, 160, 160]
00000000: fcd1 84c3 1dfe 84c2 052e e8c3 b58c 6ec3
00000010: ca5d 0dc3 a6d9 8cc2 babb 04c2 cba2 71c3
00000020: 40e5 df3d 9824 8ac1 d7ed 1cc2 d578 95c2
00000030: 6ae7 73c2 a0fb 68c2 c4de e440 ec89 f9c1
00000040: 51ba 09c1 c2da 2b3f b6eb fec0 358d c040
00000050: 93d2 f7c0 afa2 39c2 7f47 d53f 7813 a340
00000060: 99f5 e5c1 304e 97c1 4806 1541 ec60 b5c1
00000070: 1c72 0941 0ac6 d8c1 dae5 aec1 d619 663f
00000080: 565f 23c1 2e40 853f 40ca e1c1 5495 e340
00000090: 20d0 563d 3535 ad3f 0781 63c0 f445 dec1
000000a0: a901 c1bf ed63 cbc0 c227 6240 1d1c 37c1
000000b0: 228a 46c1 260a 5640 0818 e4c1 a12a bdc1
000000c0: e350 8d40 ab41 ffc0 0b92 13c1 da3e 9bc0
000000d0: d595 94c0 c36a 2440 6099 09c1 aced 4940
000000e0: ef01 86c1 b344 8ebf 503c edc0 9605 7dc1
000000f0: 8bca cac0 cc1f 9640 b445 9a3f 841e 6fc1
00000100: f620 81c0 2d3b 9ec0 0aea cbbf ceb8 08c0
00000110: b161 edc0 239c 12c0 0bff 61bf 37f2 5cc0
00000120: 8622 f1bf 1c00 36c0 4c98 f03e 77e8 5bc0
00000130: 349f a6bf db2a 2cc1 d408 0dc0 79c8 953e
00000140: 190c e8bf a10d dfbe 34dc 06bf 4f38 c0bf
00000150: 090a 3abf 2b33 5f3e 27c8 56bf cf4f 96bf
00000160: e4f0 b5c0 f8c6 98bf a812 1dc0 9653 1c3e
00000170: b721 90be 3b28 3bbf 8f34 a4bf cac2 13bf
00000180: 5807 2ebd ef1c 82be 6e11 a6c0 3d18 bdbe
00000190: 47d0 28bf b6d0 f8be 20fa 92bf 5b74 a73f
000001a0: bfbf 03c0 e9ef 16c0 dece 01c0 59ff c7be
000001b0: 10c1 42bf 9baa c6bf 1d17 acbe 92f1 7abf
000001c0: 103e 85be 0141 1ac0 d2ea b33d 4c82 a1bf
000001d0: 43e7 88c0 ce78 d6bf fb4f 883e d577 09c0
000001e0: bc9d 6bbf a53e d3bf 0435 99bf f21a 07bd
000001f0: bfc8 a3bf 6250 89bf 4b29 bbbe 37af 2a3f
00000200: 251f 0fbf 2533 cbbf ec4d e6bf 9589 18c0
00000210: a7cf 8ebf dca7 0fbe 0f8f 4dbf 1a49 31be
00000220: 7b4a dabf 0a5f 1ac0 2083 1fbe cbc0 b13e
00000230: 62bf 5fbf 0b4b e1be 3d6e f6be d212 c9be
00000240: 754a c73e 4784 a4bf 0309 20bf fb5f 05c0
00000250: b816 00c0 89c7 23bf cb17 90bc f54b 14bf
00000260: 1f76 e1bf 961d 08bf d748 1f3d 06f7 d3be
00000270: bdb7 87be 2054 a7bf 81d4 f8bd d88c afbd
00000280: 1dfe 84c2 21b6 27c2 15d3 26c3 edb5 79c2
00000290: ee81 05c2 4ee0 1bc2 59d1 a4c1 5cca bac2
000002a0: 4dc3 04be 947a 2cc1 9df7 a9c1 98e9 8dc2
000002b0: ab6f 46c1 3b04 06c2 6a11 7e40 e907 a5c1
000002c0: 9e7e 6ec1 e3f0 8340 e3f3 a5c0 665f 8f40
000002d0: c488 b2c1 f6c9 1241 f2d5 acc0 49d0 ba3f
000002e0: 00ab b8c0 5d13 ca3f 9a7e 1741 25d7 9940
000002f0: c2e6 9940 09c0 00c2 d5fe 8bc0 df30 84c0
00000300: 24ef 0ac0 738a 92be d0ce 03c1 5c8a 87c0
00000310: 485c 74c0 c61f 09c1 32ef 97c0 79b9 9fbe
00000320: 77fb a13e e3bc a7bf bd2e 1240 55af a2c0
00000330: 9e2c 6a3f 9be9 943f 8f66 153f 10e8 7f3e
00000340: fe4b 893f abab 0d40 7552 73c0 9f16 41bf
00000350: 0c02 43c1 dc6e a23f 5b37 e03d f22b f53e
00000360: 89d7 b43d 0caf 93bf 99db 1e3e 5dfa 0cbf
00000370: c233 81bf d52e 01c0 b413 283f 4c2d ebbe
00000380: 97e6 133f af17 73c0 8dfe f63e 54ab a8be
00000390: 8457 5d3e d229 673e aaef 08bf ccb0 0c3e
000003a0: 2981 1dbf 3b34 863e a0a5 e53e be6b c03e
000003b0: 464f 2bbf bd53 0cc0 1de9 063f ea77 9f3e
000003c0: a07d fdbd 8a52 21be f2f1 ebbd c55f 4bbf
000003d0: 157a 53be 75e1 2c3e 7b63 3c3e 798b 9ebe
000003e0: 2921 0cc0 9378 aebe d1d2 e9bf adad 9bbe
000003f0: fcdc efbc 46fe d1bd cd66 61bf 129d 8bbe
-265.6405 -66.496315 -464.35953 -238.54964 -141.36636 -70.425095 -33.183327 -241.63591
0.10932398 -17.267868 -39.232265 -74.736 -60.97599 -58.245728 7.152193 -31.192345
-8.607987 0.6713067 -7.9662733 6.017237 -7.744455 -46.40887 1.6662444 5.0961266
-28.74492 -18.913177 9.3140335 -22.672325 8.590359 -27.096699 -21.862232 0.8988317
-10.210775 1.0410211 -28.223755 7.1119785 0.052444577 1.3531862 -3.5547502 -27.784157
-1.5078632 -6.355948 3.5336766 -11.444364 -12.408724 3.3443694 -28.511734 -23.645815
4.416124 -7.976766 -9.223155 -4.8514223 -4.64329 2.5690162 -8.599945 3.1551313
-16.750944 -1.1114715 -7.4136124 -15.813864 -6.3372245 4.6913815 1.2052522 -14.94495
-4.0352736 -4.9447236 -1.5930798 -2.1362796 -7.418175 -2.2907798 -0.8827979 -3.4522836
-1.8838661 -2.8437567 0.46991193 -3.4360635 -1.3017335 -10.760463 -2.2036638 0.2925451
-1.8128692 -0.43565086 -0.52679753 -1.5017184 -0.7267156 0.21796863 -0.8389916 -1.1743106
-5.6856556 -1.193572 -2.4542637 0.1526626 -0.28150722 -0.7310826 -1.282854 -0.577191
-0.042487472 -0.254127 -5.1896276 -0.36932555 -0.65942806 -0.48596734 -1.1482582 1.3082384
-2.0585783 -2.358393 -2.0282512 -0.39062002 -0.7607584 -1.5520815 -0.33611384 -0.9802486
-0.26023912 -2.4102175 0.08785023 -1.2617888 -4.27823 -1.6755617 0.2662352 -2.147939
-0.9203756 -1.6503493 -1.1969304 -0.03298468 -1.2795638 -1.0727656 -0.36554942 0.66673607
-0.559069 -1.5874983 -1.799253 -2.3833973 -1.115712 -0.14028877 -0.80296415 -0.17313042
-1.705398 -2.4120507 -0.15577364 0.34717402 -0.874014 -0.44002566 -0.4813098 -0.3927217
0.38923994 -1.2852868 -0.6251375 -2.0839832 -2.0013866 -0.6397634 -0.01758947 -0.579284
-1.7614173 -0.53170145 0.038887825 -0.413994 -0.2650737 -1.3072548 -0.12149907 -0.08571786
-66.496315 -41.92786 -166.82454 -62.42766 -33.376884 -38.969048 -20.60222 -93.39523
-0.12965126 -10.779926 -21.245905 -70.95624 -12.402263 -33.50413 3.9698129 -20.628862
-14.905912 4.123155 -5.1860213 4.4803953 -22.31678 9.174307 -5.4011164 1.4594814
-5.770874 1.5787159 9.468409 4.8075128 4.8094187 -32.187534 -4.3748574 -4.1309657
-2.170846 -0.28621253 -8.237991 -4.2356396 -3.8181324 -8.570257 -4.7479486 -0.31196192
0.31637165 -1.3104519 2.2841027 -5.083903 0.9147433 1.1633791 0.58359617 0.24990869
1.0726316 2.2136028 -3.8019078 -0.7542514 -12.188 1.2690082 0.10948058 0.4788509
0.088301726 -1.1537795 0.15513457 -0.55069524 -1.009392 -2.0184834 0.65655065 -0.45932996
0.5777373 -3.7983205 0.48241082 -0.32943213 0.21615416 0.22574547 -0.534907 0.13739318
-0.6152521 0.26211724 0.44852924 0.375822 -0.66917837 -2.192611 0.5269945 0.31146175
-0.12377477 -0.15754142 -0.11520757 -0.7944301 -0.2065204 0.1688288 0.18397324 -0.30965784
-2.189524 -0.34076366 -1.8267461 -0.30405942 -0.029280178 -0.10253577 -0.88047487 -0.27268273

mean_module.constant f4 [5, 1]
00000000: 00ee 0fbe bfe6 de3c 7cff d7bc 5f48 5f3d
00000010: 8bf3 ee3c
-0.14055634 0.027209638 -0.026366942 0.054512378 0.029168865

covar_module.raw_outputscale f4 [5]
00000000: 0807 c0bf a275 20bf 30b8 09c0 3da0 893e
00000010: b1f0 d43e
-1.5002146 -0.62679493 -2.151867 0.26880065 0.41589883

covar_module.base_kernel.raw_lengthscale f4 [5, 1, 5]
00000000: 9dd9 7040 392e d43f 4465 2240 70cc 9240
00000010: a4b2 3d40 c9da 0140 8252 163f 85fb ac40
00000020: f433 9040 74cb 0741 3e7a 8540 d54e 5941
00000030: cf42 2040 d0ad a5bf 53ad 36be 22f9 7040
00000040: f20e 453f a0e6 5b40 4a34 9a40 871b cd40
00000050: a497 8540 5c75 703f 83c6 8840 1c4e 7740
00000060: 85ea eb40
3.763282 1.6576606 2.5374308 4.5874557 2.9640284 2.0289786 0.58719647 5.405703
4.506342 8.487171 4.171172 13.581746 2.5040777 -1.2943668 -0.17839555 3.7652059
0.7697593 3.4359512 4.818883 6.4096103 4.174761 0.93929076 4.2742324 3.8641424
7.372378
