mogp_model_state_spNG_unit.pth (torch, 316158 bytes, 7 tensors)

variational_strategy.lmc_coefficients f4 [3, 3]
000000 4e b9 47 3c 48 f0 6b 3c c9 10 c4 bc a0 6b 08 be
       0.012190176 0.014400549 -0.023933785 -0.13322306
000010 2f 1b 02 be 72 6b 30 be d3 0f 4b 3e fb c1 52 3e
       -0.12705682 -0.17228487 0.19830255 0.2058181
000020 7d 83 16 3e
       0.14698596

variational_strategy.base_variational_strategy.inducing_points f4 [3, 159, 3]
000000 94 0c 35 3f e8 d6 d5 bf e9 05 61 bf 31 39 05 40
       0.7072232 -1.6706209 -0.87899643 2.0816157
000010 8b 50 d1 3e fd 71 33 bf a9 7e c7 3e 9d 75 02 40
       0.40881762 -0.7009581 0.38963822 2.0384285
000020 03 99 10 3f ed a1 0f bf 99 6e ec bd e1 26 03 c0
       0.5648348 -0.56106454 -0.11544532 -2.049248
000030 4b d0 02 40 d3 5b ff bf e7 9f 4d c0 c8 e9 61 bf
       2.0439632 -1.9949898 -3.2128847 -0.88247347
000040 3d be b2 3f 7c 80 a2 3e 4a 7c b3 bd 92 92 94 3f
       1.3964306 0.3173865 -0.08763941 1.160723
000050 2f c3 ba bf cf 55 80 bc 74 58 01 bf 01 ce 04 be
       -1.4590815 -0.015665917 -0.50525594 -0.12969209
000060 e8 e7 74 3f f0 01 ea bf bf 09 22 40 af 55 38 3f
       0.9566636 -1.8281841 2.5318449 0.7200574
000070 88 9f 85 3f 6e 34 4a bf ab 4c 3c bf 8a 8c d7 3f
       1.043931 -0.7898625 -0.73554486 1.6839764
000080 d7 c2 31 3f c8 43 4b 3f 2e 23 3d 3f 4d fe e5 3e
       0.69437927 0.794003 0.73881805 0.4492058
000090 f2 db fc 3e a8 47 bb 3e 07 e3 36 bf 4a ae 54 3f
       0.49386555 0.36578107 -0.71440166 0.83078444
0000a0 8d b0 67 bf c2 a2 9f 3f a4 6a 00 c0 de ed 4c 3d
       -0.9050377 1.2471545 -2.0065088 0.050031535
0000b0 a0 7a 9c bf b0 fe 91 bf 29 4a 14 40 3b f0 e8 3f
       -1.2224922 -1.140585 2.3170264 1.8198313
0000c0 de e8 cb bf ae f8 18 3f 43 ba 71 3e 07 01 a6 bf
       -1.593044 0.59754455 0.2360621 -1.2969064
0000d0 78 02 66 3d d6 96 a5 3d 20 2d 9e bf 3a ec 04 3e
       0.056154698 0.0808541 -1.2357521 0.12980738
0000e0 17 85 b1 3f 51 04 2e 3e 1b cf 0b c0 40 15 aa bf
       1.3868741 0.16993834 -2.1845157 -1.3287735
0000f0 16 74 f4 3d 3d b0 e5 be cb c0 25 40 52 6a cc 3d
       0.11936204 -0.44861022 2.5898921 0.099812165
000100 4b 25 0b 3f 96 58 78 3f 52 99 da 3e 59 85 31 c0
       0.5435378 0.9701017 0.426951 -2.773764
000110 24 bd 2a bf cc ef 08 be a4 84 9e 3f c2 aa 66 3f
       -0.66694856 -0.13372725 1.2384229 0.90104306
000120 57 20 1a 3f a8 71 c0 3f 1c f6 83 3f d5 cc b7 3d
       0.60205597 1.5034685 1.0309482 0.089746155
000130 fa e0 04 3f 7f 1f 03 3d 12 85 19 bf 0f 87 e3 bf
       0.51905787 0.03201246 -0.59968674 -1.7775592
000140 d4 29 c2 3f 56 10 68 bf ce d5 30 3f 00 af 80 bf
       1.5169015 -0.90649927 0.6907624 -1.0053406
000150 a0 b8 1d 40 6b 97 00 3f 18 83 06 40 05 5a d4 3f
       2.4643936 0.50231045 2.1017513 1.6589972
000160 4d 51 8f 3f 51 02 96 be 2c 78 cf 3c c8 c5 fc bf
       1.1196686 -0.29298642 0.025325857 -1.9747858
000170 23 fa 78 3e aa 93 c7 3e b2 44 a1 bf 1d 36 bf bf
       0.2431417 0.38979846 -1.2599089 -1.4938389
000180 e0 af 61 3e a2 6c 8f bd 3d 76 05 bf 82 c0 9a be
       0.22039747 -0.07003142 -0.5213354 -0.30224997
000190 06 78 39 3f 0e 6d e4 bf ad 72 87 bf c9 90 7e 3f
       0.72448766 -1.7845781 -1.0581871 0.99439675
0001a0 5f 90 c3 bf 60 37 81 bf 4f 4f 7a 3e e0 16 26 40
       -1.5278434 -1.0095024 0.24444316 2.5951462
0001b0 39 a0 e4 3d 13 64 10 40 23 c0 f5 bf 02 1d 41 3f
       0.111633725 2.256108 -1.919926 0.7543489
0001c0 fa bb ea 3e a1 2a cd be 56 f4 66 bf ac 84 c9 3f
       0.4584654 -0.40071586 -0.9021658 1.5743613
0001d0 18 9c 71 bf d4 c4 91 3f 74 e6 95 3d b2 0b fc be
       -0.94378805 1.1388192 0.07319346 -0.49227673
0001e0 61 69 1e be 98 00 10 3f 42 49 bc bf b9 5b ad 3e
       -0.15469886 0.56250906 -1.4709857 0.3385904
0001f0 65 89 eb bf 0d b0 9b 3f d9 56 96 be e2 b0 c0 3e
       -1.8401304 1.2163101 -0.29363135 0.3763495
000200 29 98 bb be 43 12 87 bd b9 d0 8d 3f 21 1a 0d bf
       -0.36639526 -0.0659528 1.1079322 -0.55117995
000210 c1 21 6e 3e 88 47 8a be 86 a3 15 bd d9 aa 50 3f
       0.23255064 -0.270077 -0.0365329 0.8151069
000220 79 8b e8 be cc 85 bf bf ba 9d 81 3e 82 d3 b9 bf
       -0.4541891 -1.4962707 0.25315648 -1.4517672
000230 db ff 61 bd 4c 25 df 3e a9 fb 0a bf 01 c0 3f bf
       -0.055175643 0.43583143 -0.5429025 -0.7490235
000240 0e 24 49 3f 9e e1 e8 3e 92 5a 58 bf ab 52 b7 bf
       0.7857064 0.45484632 -0.845132 -1.4322103
000250 8f 79 f0 3f a7 29 72 bf 0f 87 01 bf 7e 66 64 bf
       1.8787097 -0.94594806 -0.5059671 -0.8921889
000260 1c fa 97 bf b4 76 81 3f 38 06 bb 3e 72 b9 6f 3f
       -1.1873202 1.011435 0.36528182 0.9364234
000270 d5 f5 00 3f fb 51 a7 3d 97 87 f8 3d 0d f6 4f be
       0.5037511 0.081699334 0.12135237 -0.20308705
000280 5a f8 50 3f 7e 71 f7 3f 4b a6 8c 3d 06 e5 f3 bf
       0.81628954 1.933151 0.06867655 -1.9054267
000290 24 b0 ee be 9c b4 7d 3f 7c c0 ae 3f 44 79 0b 3f
       -0.4661876 0.99103713 1.3652492 0.5448191
0002a0 69 b7 c9 3e 84 67 88 3b ca 80 0f 3f 34 84 18 3f
       0.39397743 0.0041627306 0.5605589 0.59576726
0002b0 7e b1 6d c0 8a 4e 94 be 5d 65 05 40 1f 03 94 3f
       -3.7139583 -0.2896617 2.0843117 1.1563452
0002c0 b6 f1 2e 3f ed 4b 68 3f 24 65 3b c0 c1 e0 d3 bf
       0.6833757 0.90740854 -2.9280481 -1.6552964
0002d0 2a e8 e9 3f 73 a0 bf bf 87 60 46 bf 2f 79 6d bf
       1.8273976 -1.497084 -0.7749104 -0.92763036
0002e0 70 f5 8a bf 68 1c 21 3f 05 dd 05 be ed 26 74 bf
       -1.0856152 0.6293397 -0.13072594 -0.95371896
0002f0 46 bd a7 3f f1 1d 5c 3f f9 90 87 3e fe 90 18 3e
       1.3104637 0.85983187 0.26477793 0.1489906
000300 f9 be a8 bf 4b 1f 83 3f 80 91 e3 bf b6 fe 42 3e
       -1.318328 1.0243925 -1.7778778 0.19042477
000310 97 60 c3 be 7c 03 ea be f5 a5 7f 3f 07 67 4c be
       -0.3815963 -0.45705783 0.99862605 -0.19961177
000320 f9 30 61 3f 38 0a 70 3f 89 3d 82 3f b7 cd 9a bf
       0.8796535 0.9376559 1.0175029 -1.2094029
000330 34 84 72 3f c0 3a 3d bf e1 be c4 be f6 50 19 3f
       0.94732976 -0.7391777 -0.3842688 0.5988916
000340 e7 1b 4f bf e7 dd 05 40 0c 17 68 3c ff df ef be
       -0.8090195 2.0916688 0.014165651 -0.46850583
000350 ba 2f cb 3f af 45 98 3f 1c 28 34 3e dc 66 09 3f
       1.587394 1.1896266 0.17593426 0.53672576
000360 ab 79 01 c0 b1 91 73 3d ec 6e 6a bf 92 c5 ef 3c
       -2.023051 0.059465114 -0.91575503 0.029269014
000370 03 99 f5 bd 3b 1a b7 3f 42 f7 c6 bf e1 28 b8 be
       -0.11992075 1.430488 -1.5544207 -0.35968688
000380 38 04 6f bf db 1b 22 bf dd 91 a1 bf 6b aa 98 bd
       -0.9336581 -0.63323754 -1.2622639 -0.0745438
000390 f8 01 19 bf 2a 4b 0c 40 64 0b 5b bf 47 88 c4 3d
       -0.5976863 2.1920877 -0.85564256 0.09596305
0003a0 d2 57 2d bf 82 03 34 3e bf c4 f7 3e 70 03 b9 3e
       -0.6771213 0.17579463 0.48392293 0.36135435
0003b0 3c 8c a8 bf fe 1c c9 be 34 cc 5a bf 93 fa c6 3f
       -1.3167796 -0.39279932 -0.8546784 1.5545219
0003c0 c7 44 67 3f f2 63 74 3f e0 91 2a 3f a2 21 f2 bd
       0.9033932 0.95465004 0.6662884 -0.11822821
0003d0 b5 67 e5 3c 5c 14 ef bf 08 c9 fc 3e aa a2 09 40
       0.028003553 -1.8678088 0.49372125 2.1505532
0003e0 b6 4a 45 bf c7 02 d0 bd 54 ea 27 bf 7f aa 7c bf
       -0.77067125 -0.1015678 -0.6559193 -0.98697656
0003f0 03 e1 43 bf 08 f5 1b 40 e2 62 e2 3e 93 c3 88 3e
       -0.76515216 2.4368305 0.44216067 0.2671171

variational_strategy.base_variational_strategy._variational_distribution.natural_vec f4 [3, 159]
000000 66 cf 0f 44 89 70 59 42 70 20 a4 c1 c5 8c 4c c2
       575.2406 54.359898 -20.515839 -51.13747
000010 b9 7d 3f bf 5a c5 de c1 4b 7f 17 c3 e7 81 ba 43
       -0.7480121 -27.846363 -151.49724 373.01486
000020 ad 81 6f 40 e2 1d 7a 42 2a 81 e7 c1 5d 8d 43 43
       3.7422898 62.529182 -28.938068 195.5522
000030 a5 cd a9 40 d2 a3 81 43 a9 3a b1 42 cc ad 13 41
       5.306353 259.27985 88.61457 9.229931
000040 4e 12 8d 43 a4 f6 54 44 36 2b 9a c1 90 33 45 c3
       282.143 851.85376 -19.2711 -197.20142
000050 92 7d cc c1 7d 4a 1e c3 fc 22 96 c2 9d 6d 17 c2
       -25.561314 -158.29097 -75.06833 -37.857044
000060 7b 6c 1f c2 26 f8 cd c3 2b 4e 8d 42 f3 27 47 c3
       -39.855938 -411.93866 70.65267 -199.15605
000070 d5 b9 ac bf a1 51 c6 c1 49 13 ec 42 7a ae 3f c3
       -1.3494211 -24.789858 118.03767 -191.68155
000080 2d 76 51 c3 0f fd 9e c1 d3 3f e3 42 13 d8 3e 41
       -209.46162 -19.873564 113.62466 11.9277525
000090 45 95 26 42 23 7d ca 43 61 b9 0a 42 c9 41 a5 43
       41.64577 404.97763 34.681034 330.51395
0000a0 10 09 d4 c2 6d 8b a6 c2 c7 4f 65 c3 da 9c 8f 42
       -106.0177 -83.272316 -229.31163 71.80635
0000b0 40 6d 65 43 98 a7 b4 c1 94 90 06 43 99 a8 87 43
       229.42676 -22.581833 134.56476 271.31717
0000c0 81 71 73 c3 32 c4 06 42 06 1d aa 43 21 73 a6 40
       -243.44337 33.691597 340.22675 5.201554
0000d0 b5 8f 80 43 68 9f 64 41 b1 b1 14 c3 dd c3 ae 42
       257.1227 14.288918 -148.6941 87.382545
0000e0 15 64 30 c3 93 1b 77 41 26 cb 79 40 a6 27 07 c2
       -176.39095 15.444232 3.9030242 -33.78872
0000f0 9a f7 16 42 66 72 16 44 8e 37 82 c2 a8 e1 b2 42
       37.7418 601.7875 -65.108505 89.440735
000100 bf 22 6b c1 fa 0d ff c2 a8 dd 00 43 fe 1c 84 41
       -14.695983 -127.5273 128.86584 16.514156
000110 19 a1 fc 43 5f 8d eb c0 ce 13 7e 42 fd 44 ec 40
       505.25858 -7.361007 63.51934 7.3834214
000120 cb 20 d6 40 79 3f 7a c2 68 e6 66 43 68 53 0c 44
       6.691503 -62.561985 230.90002 561.3032
000130 b8 7f fc c0 7b d1 82 c2 34 86 0b 42 11 cf f5 c0
       -7.8905907 -65.40914 34.881058 -7.6815267
000140 b6 ee 01 42 76 db c5 bf d9 d1 e7 bf 23 01 5e c2
       32.483116 -1.5457599 -1.8110915 -55.50111
000150 47 68 8e 40 95 87 02 c2 96 66 3d c1 0a 26 2d bf
       4.450229 -32.632404 -11.837545 -0.6763617
000160 3d ec f6 c0 87 cc 0e c1 08 07 fc c1 40 90 15 42
       -7.7163377 -8.924933 -31.503433 37.39087
000170 1c fc 3a 41 70 02 8d c1 db 3d 0a 43 d7 44 7a 43
       11.68655 -17.62619 138.24162 250.2689
000180 8c 61 21 c3 1a 04 3f 42 64 fa ba 42 5d b6 b0 c1
       -161.38104 47.754005 93.489044 -22.089045
000190 fd 7b 65 41 e2 7f 7c c0 43 34 f8 c0 bd dc 49 c1
       14.342771 -3.9453053 -7.7563796 -12.616391
0001a0 25 b9 dd 41 d3 d5 94 c0 e1 3a 89 c0 3e 1b 7c 41
       27.715403 -4.6511016 -4.2884374 15.756651
0001b0 62 ec 86 bf af f2 c7 c0 64 51 32 bf c4 45 29 41
       -1.0540888 -6.2483745 -0.6965544 10.579533
0001c0 a4 a1 a4 43 27 9d bd 41 0b 2c ac 40 25 84 34 c2
       329.26282 23.701735 5.3803763 -45.129047
0001d0 8b 81 01 c1 54 fa d2 40 c2 bb 3d bf 2d a7 f4 40
       -8.094127 6.5930576 -0.7411462 7.645407
0001e0 e2 1d 37 c0 fc 62 69 41 9c ee 46 43 46 92 87 42
       -2.861199 14.586666 198.93207 67.78569
0001f0 b4 3d 33 41 e7 1d eb c1 2d db c8 41 80 22 d9 c2
       11.202564 -29.3896 25.10702 -108.56738
000200 5b 39 82 42 3b b9 00 c2 af 06 1e 41 58 20 1d 41
       65.11202 -32.18089 9.876632 9.820396
000210 2b 92 3d c0 86 9a bf 40 52 00 4d 43 5a 12 24 c0
       -2.9620464 5.9876127 205.00125 -2.56362
000220 78 3e 59 42 c9 af 53 bf 97 93 53 42 06 f0 01 42
       54.311005 -0.826901 52.89413 32.484398
000230 e4 ec 86 40 b3 43 e6 bf 0d 60 10 42 3b 6e 95 40
       4.2164173 -1.798941 36.0938 4.669706
000240 e9 bd 9c 40 24 3c a0 41 b1 d7 ec c1 84 74 45 41
       4.8981824 20.029366 -29.605318 12.340946
000250 83 40 3d 40 59 c1 99 40 96 d6 44 c1 42 2c 7b 41
       2.9570625 4.804852 -12.302389 15.698305
000260 7a 89 c7 bf ad a0 18 41 9a b0 e0 be 9f ad cb bf
       -1.558883 9.5392275 -0.43884736 -1.591236
000270 a6 fc 06 41 95 ac c2 40 28 a0 05 c1 0b b9 a2 48
       8.436682 6.083567 -8.351601 333256.34
000280 cb d6 cb c7 d2 5c 96 48 30 1b ed 47 77 32 f1 48
       -104365.586 307942.56 121398.375 493971.72
000290 a1 73 4c 48 12 da 02 c8 38 9b 05 c9 1f 5c d2 c7
       209358.52 -133992.28 -547251.5 -107704.24
0002a0 43 0a f5 47 e2 d4 ba 49 9b 16 dd c3 b7 33 ab c9
       125460.52 1.5305242e+06 -442.1766 -1.4024869e+06
0002b0 27 e0 19 c6 df 43 9f 48 b1 bf 20 c3 89 19 37 c7
       -9848.038 326174.97 -160.7488 -46873.535
0002c0 40 b9 24 47 55 ba 3d c6 58 2c e6 c8 a4 d9 8b c8
       42169.25 -12142.583 -471394.75 -286413.12
0002d0 fe 6b 95 47 4b 78 aa c5 ae 2e 56 c6 05 6b 4c 48
       76503.984 -5455.0366 -13707.67 209324.08
0002e0 49 37 44 c7 49 16 10 c9 ed 82 ce c6 83 a2 8b c9
       -50231.285 -590180.56 -26433.463 -1.1438884e+06
0002f0 ed 86 4c 48 bd 32 6c c6 00 b7 58 48 3e 81 b5 46
       209435.7 -15116.685 221916.0 23232.621
000300 e8 47 1f 48 4d 72 7e 47 33 41 a1 48 15 27 de c8
       163103.62 65138.3 330249.6 -454968.66
000310 ad ae 95 c9 80 3b 02 48 e4 95 e2 45 05 27 c2 c7
       -1.2261976e+06 133358.0 7250.7363 -99406.04
000320 1c f0 51 c8 8c 9a a3 c5 da eb 3f 48 47 30 ac c5
       -214976.44 -5235.3184 196527.4 -5510.0347
000330 85 f6 b0 c7 d8 2d 86 47 de fd 06 c7 ba 32 ac c8
       -90605.04 68699.69 -34557.867 -352661.8
000340 d6 3d 15 48 24 91 f9 45 cc 92 0a c6 f3 53 97 c6
       152823.34 7986.1426 -8868.699 -19369.975
000350 0b 46 3c 47 33 fe 61 47 95 a2 a7 47 81 88 4e 46
       48198.043 57854.2 85829.164 13218.126
000360 f5 29 33 c7 0a 4f 07 c7 16 16 71 48 15 5b 86 c6
       -45865.957 -34639.04 246872.34 -17197.541
000370 be e1 e0 c2 77 d6 02 c7 05 0d 8a 46 1b 0d b5 c5
       -112.4409 -33494.465 17670.51 -5793.638
000380 3e d5 84 46 a5 e3 84 c6 30 41 b1 46 ed 14 86 47
       17002.621 -17009.822 22688.594 68649.85
000390 44 ed a7 c3 c2 c5 e3 c4 1e 60 a8 45 c4 d1 91 c5
       -335.85364 -1822.1799 5388.0146 -4666.2207
0003a0 c9 42 be 46 39 c4 ac c4 bf 4d bc c6 38 16 e5 47
       24353.393 -1382.132 -24102.873 117292.44
0003b0 1e ef 38 45 63 90 70 47 7b 7e ed 45 d4 0c 6e 46
       2958.9448 61584.387 7599.81 15235.207
0003c0 63 3c 57 46 88 63 c9 c5 2e d9 30 c4 ea 1f d6 46
       13775.097 -6444.4414 -707.39343 27407.957
0003d0 d4 66 5f 42 5c d4 18 45 98 43 84 c7 f2 7b 0d 47
       55.850418 2445.2725 -67719.19 36219.945
0003e0 0f d9 4c 46 8f 31 02 c6 5c 62 32 c8 73 e0 0f 45
       13110.265 -8332.39 -182665.44 2302.028
0003f0 ec 39 ef c3 26 22 9b 46 04 ee 98 c5 01 aa 9f 45
       -478.4525 19857.074 -4893.752 5109.2505

variational_strategy.base_variational_strategy._variational_distribution.natural_mat f4 [3, 159, 159]
000000 de c4 bd c3 6d a7 fc c1 af 9c 19 c1 56 d5 8b c0
       -379.53802 -31.58175 -9.600753 -4.369792
000010 ef fd fe 3e 00 2b 87 c0 43 d0 94 c1 94 1a 97 c3
       0.4980311 -4.223999 -18.60169 -302.20764
000020 17 31 04 c0 ba 1d c1 c2 a8 67 90 c0 86 d0 15 c3
       -2.0654962 -96.55806 -4.5126534 -149.81454
000030 5b 58 4d c3 15 02 19 c3 7c 1d af bf d5 1f 41 3f
       -205.34514 -153.00813 -1.3680873 0.75439197
000040 48 90 6e c0 88 bf 94 40 3e a5 91 3f a7 7e 00 43
       -3.7275562 4.6483803 1.1378553 128.49474
000050 1e 4e 72 41 33 ba 56 42 0a 1f 35 42 7d f6 7a c1
       15.144072 53.681835 45.28031 -15.685178
000060 8d 7e 2f 42 39 6a c9 42 e8 55 d4 40 80 3c 97 bf
       43.873585 100.707466 6.6354866 -1.1815338
000070 a7 1b 47 3f 72 a5 4c c0 8a cf ae c1 5d 15 bb 42
       0.7777657 -3.197598 -21.851337 93.541725
000080 48 3f 56 c2 4c e3 f2 40 ad c3 56 c1 aa 81 ac bf
       -53.5618 7.590246 -13.422772 -1.347707
000090 4a 6a a0 c1 06 df 79 c3 5a 89 ed 40 63 3e 50 c3
       -20.051899 -249.87119 7.4230165 -208.2437
0000a0 b3 91 4c 42 d8 4e b2 41 0b 00 bd 42 7a 8f 1c c2
       51.142284 22.288498 94.500084 -39.140114
0000b0 a0 97 7b c3 8e df 3c 41 11 71 15 c3 d6 05 17 c3
       -251.59229 11.804579 -149.44167 -151.0228
0000c0 c0 af e0 42 b1 7d dc bf 88 c5 1b c2 6b cf c6 c0
       112.34326 -1.7225858 -38.9429 -6.2128196
0000d0 ff f2 bb c2 75 bf ac c0 57 fe 9f 42 85 a9 19 c2
       -93.9746 -5.398371 79.99676 -38.415546
0000e0 35 9b a8 42 e5 89 31 c1 48 9f e3 c0 d8 48 9b 41
       84.30314 -11.096166 -7.1131935 19.410568
0000f0 87 15 cc c1 f1 a5 71 c1 a6 1e 7d 3f 11 82 62 c2
       -25.510511 -15.103013 0.9887489 -56.627018
000100 11 ed b8 40 59 ab d8 41 15 16 8d c2 b3 d4 88 3f
       5.778939 27.083666 -70.54313 1.0689911
000110 4a b2 91 c3 14 35 15 41 86 81 29 c0 d6 81 fc 3d
       -291.39288 9.325459 -2.6485305 0.12329452
000120 10 2e 1e 3e 66 db fa 3f aa eb 60 c0 c6 63 96 c1
       0.15447259 1.9598205 -3.5143838 -18.798717
000130 e7 a1 34 3e 9c eb f7 3f 7d 92 2e c1 bf c1 99 bf
       0.17639886 1.9368777 -10.910764 -1.2012252
000140 94 f1 8c c1 cc 4e 41 3e 2b 16 fe 3f d6 15 90 3f
       -17.617958 0.18877715 1.9850515 1.1256664
000150 bb b4 07 be a2 68 97 41 77 34 0a 41 87 65 51 bf
       -0.13252537 18.92609 8.637809 -0.81795543
000160 5c 9e a3 c0 0c 65 ab 40 10 f7 d8 bf b0 e3 98 c1
       -5.113081 5.356085 -1.6950397 -19.111176
000170 b9 9a c6 c0 f7 cb cf 40 0c aa 8f c2 76 88 0b be
       -6.206387 6.493648 -71.83212 -0.13626274
000180 f4 72 b5 40 96 b4 3b c2 f0 77 7e c2 8c bc 9c bf
       5.6702824 -46.926353 -63.617126 -1.224504
000190 48 d8 46 be e0 7e 89 40 90 6b 05 be 41 d7 94 3e
       -0.19418442 4.2967377 -0.13029313 0.29070476
0001a0 d6 98 96 c1 15 44 81 be 0b ff 99 3e 6f 5e e0 c0
       -18.824627 -0.25247255 0.30077395 -7.0115275
0001b0 bb 17 3c c0 cd 89 97 3d 35 c8 1b be 54 d8 3d 3e
       -2.9389484 0.0739933 -0.15213092 0.18539554
0001c0 9f 81 51 c0 eb 83 27 c1 ad b0 51 be cd 14 62 3e
       -3.2735364 -10.469707 -0.20477553 0.22078247
0001d0 ca 3e e6 be 02 00 b9 3e 90 71 25 bf 41 48 24 be
       -0.4496978 0.36132818 -0.6462641 -0.16043188
0001e0 5f 13 0c 3f cc 51 0c c1 30 4e 39 c0 22 b5 10 bf
       0.5471706 -8.76997 -2.8953972 -0.56526387
0001f0 e6 ab e8 c0 cf 20 41 bd 4b 0e 6d be 5c 65 01 3f
       -7.2709837 -0.04715043 -0.23149984 0.5054529
000200 f2 5a 62 bf 55 f1 2f 3e e2 81 a1 c0 ea 08 63 c0
       -0.8842002 0.17181905 -5.047105 -3.547419
000210 3e c2 f9 bd 2a 97 4b be 19 01 04 c0 e8 e4 96 3c
       -0.12195252 -0.19881883 -2.062567 0.018419698
000220 5e 8b 85 be 79 07 c4 be 52 cf e6 be 9e 7e 93 be
       -0.2608289 -0.3828695 -0.45080048 -0.2880754
000230 a7 e6 97 c0 3a e4 83 bd 05 b4 9b be ba 2f 06 be
       -4.746906 -0.06440015 -0.30410782 -0.13104144
000240 f1 08 d7 bd e3 d1 4d be 5f f7 9c be c2 a5 d2 bc
       -0.10499752 -0.20099597 -0.3065748 -0.025713805
000250 fd 17 9b bb a4 6a c8 bd ac 84 c0 be d4 31 20 be
       -0.0047330842 -0.09785965 -0.3760122 -0.15644008
000260 2c e6 7f 3c 15 bf aa c0 a0 8b be bf e7 4d 99 3d
       0.015618842 -5.3358254 -1.488636 0.07485562
000270 4c e8 c6 c0 58 27 8c c0 9d 02 00 b9 6d a7 fc c1
       -6.2158566 -4.3798027 -0.00012208005 -31.58175
000280 41 8a 61 c0 7a 33 38 bf e2 54 8f bd 17 7a 28 3d
       -3.5240633 -0.71953547 -0.06998612 0.04113206
000290 27 ad d4 bd 56 63 8f bf 2b 43 b0 c1 21 9a 40 be
       -0.10384589 -1.120219 -22.032797 -0.18808796
0002a0 11 a7 fe c0 c6 f0 f3 be 83 24 53 c1 a7 ed 83 c1
       -7.957894 -0.47644633 -13.196414 -16.491041
0002b0 92 21 5a c1 ac 8e 8d bc e2 d8 b1 3d e5 6b e1 bd
       -13.633196 -0.017279945 0.08683945 -0.110069074
0002c0 2f e6 93 3f a6 4b 23 3d 89 dc 32 41 79 23 ac 3f
       1.1554621 0.039867066 11.178842 1.3448325
0002d0 5a 64 92 40 6f b3 77 40 5a 9a b0 bf d1 ce 7c 40
       4.57475 3.8703268 -1.3797104 3.950123
0002e0 48 40 09 41 0d 74 17 3f 3b 1f 9a 3c 18 76 8a 3d
       8.578194 0.59161454 0.01881372 0.06760806
0002f0 6d 04 95 be a0 88 d2 bf cf 10 07 41 ae 2c 68 c0
       -0.2910494 -1.6447945 8.441604 -3.627727
000300 54 47 1d 3f a0 c4 92 bf 34 6e da bd 42 20 db bf
       0.61436963 -1.1466255 -0.10665551 -1.7119219
000310 8b 91 af c1 d2 98 2e 3f db 8a 9c c1 19 84 82 40
       -21.946066 0.68201935 -19.5678 4.078625
000320 c5 5e fd 3f 41 d4 fc 40 5f 0d 4a c0 43 db a8 c1
       1.9794546 7.90091 -3.157066 -21.107061
000330 19 af ad 3f df f8 3f c1 04 f9 42 c1 1b 7a 25 41
       1.356906 -11.99826 -12.185795 10.342311
000340 72 a4 58 bd 75 9a 48 c0 36 92 1e bf 89 77 06 c1
       -0.052891202 -3.1344273 -0.6194185 -8.404183
000350 84 2e fb be ca 1a dd 40 d8 f4 59 c0 d1 34 ea 40
       -0.49058926 6.90952 -3.405569 7.3189473
000360 14 d0 7c bf 94 df 31 bf ec 44 df 3f 50 fe 2a c0
       -0.98755 -0.6948178 1.7442908 -2.671772
000370 5f a6 37 bf 2e 93 90 bc ec db ae c0 ac d2 fa 3e
       -0.7173824 -0.017648306 -5.464346 0.48988855
000380 c9 92 20 40 bb 88 d5 c0 60 6d ee 3d cf 38 d4 c1
       2.508959 -6.6729407 0.116419554 -26.527739
000390 3e bb 5d 3f 76 6c d5 bd 59 c8 5f be eb 4f b4 3c
       0.86613834 -0.10421078 -0.2185377 0.022010764
0003a0 b2 2e c4 3d 92 0d 12 bd 17 6a 73 bf 2a 54 8a 3b
       0.09579219 -0.035657473 -0.95083755 0.004221459
0003b0 7b 05 af 3d 1e 4b 90 bf 49 ad 01 be 70 77 c9 bf
       0.08545967 -1.1272924 -0.1266376 -1.5739574
0003c0 11 49 87 3c 51 4b 1a 3e f4 f4 89 be 53 26 ae 3b
       0.016514333 0.15067793 -0.26944697 0.005314627
0003d0 b7 16 c2 3f 9c 8f 37 3f 2f be 55 bd 84 c4 03 bf
       1.5163182 0.71703506 -0.052183326 -0.51471734
0003e0 29 39 c8 3e ab 7f 89 be 08 ea 08 c0 fe 12 1e bf
       0.3910611 -0.26855215 -2.1392841 -0.6174773
0003f0 df 89 32 3f 47 cc d9 c0 fa da 5e 3e 44 f8 8c 3e
       0.69741625 -6.806186 0.2176322 0.27533162

mean_module.constant f4 [3, 1]
000000 ed 36 84 be d6 dc e4 3c ff f4 f6 be
       -0.25823155 0.027937334 -0.48233792

covar_module.raw_outputscale f4 [3]
000000 a7 c8 86 bf 5a 0e 03 bf 34 53 cc 3e
       -1.0529984 -0.51193774 0.3990723

covar_module.base_kernel.raw_lengthscale f4 [3, 1, 3]
000000 02 90 64 be 0f e2 f4 3e 2b 4a 88 3e 8a da df bd
       -0.2232056 0.4782872 0.26619086 -0.10930355
000010 80 0d 8d 3f 4f db 51 3f c3 4d 37 bf 5f 33 82 be
       1.1019745 0.81975263 -0.7160303 -0.25429818
000020 e9 3b 01 bf
       -0.5048204
